LearningToCompare/code/omniglot_relation_network_5way_5shot.pkl (torch_old, 449620 bytes, 15 tensors)

layer1.0.weight f4 [64, 128, 3, 3]
0	0xbd406cc4	-0.046978727
1	0x3c74d95d	0.014944402
2	0x3da41952	0.08012642
3	0xbd08aff1	-0.033370916
4	0xbb69c6c7	-0.003567146
5	0xbcb55859	-0.022136854
6	0xbd72001c	-0.059082136
7	0x3de0b374	0.10971728
8	0x3d820b58	0.0634982
9	0xbcfcd9d2	-0.030865584
10	0xbd2c88e4	-0.042122737
11	0x3d9781d5	0.0739781
12	0x3cb01461	0.021494092
13	0xbd4bac92	-0.049725123
14	0xbd538329	-0.051638756
15	0xbd9be638	-0.0761227
16	0x3d1252fe	0.03572368
17	0xbd57984d	-0.05263548
18	0x3cfbd5cb	0.030741593
19	0x3cd3ca04	0.025853164
20	0x3db1cc82	0.08681585
21	0xbd9b48c9	-0.07582242
22	0xbe3c3b4e	-0.18381998
23	0xbc643aed	-0.013930065
24	0xbd0b7967	-0.034051325
25	0x3bb4b1a2	0.0055143395
26	0x3a230c53	0.0006219793
27	0xbc24243d	-0.0100184055
28	0xbc30ab5e	-0.010783045
29	0xbda1cb8a	-0.0790015
30	0xbce5627e	-0.028001066
31	0x3d7cfae4	0.061762705
32	0xbc8c3f98	-0.017120168
33	0xbd83ffc8	-0.06445271
34	0x3d09babb	0.033625346
35	0xbdbfe9b1	-0.09370745
36	0x3dee1486	0.11625008
37	0x3ab37243	0.0013690669
38	0xbd0f8dba	-0.03504727
39	0xbb704da8	-0.003666738
40	0xbdcd4432	-0.10022773
41	0xbd05d978	-0.032678097
42	0xbdc27f2b	-0.094969116
43	0x3d18a6e7	0.037268545
44	0xbd9b508b	-0.07583722
45	0x3d66ea12	0.05637557
46	0x3cfd3afd	0.030911917
47	0x3d60a951	0.054848973
48	0xbd2d2b8a	-0.04227785
49	0xbd437a82	-0.047724254
50	0xbd38d7e4	-0.045127764
51	0x3c3d032c	0.011536401
52	0x3cc5e29c	0.024155907
53	0x3dfca472	0.12336053
54	0x3dad03d0	0.08447993
55	0xbd57786d	-0.05260508
56	0x3da99760	0.082808256
57	0x3d83b862	0.064316526
58	0x3d009548	0.031392366
59	0x3d3d3212	0.04619033
60	0xbcf31d4a	-0.029677052
61	0xbc3d37e5	-0.011548971
62	0x3dab5be3	0.083671354
63	0xbd6cfe76	-0.05785986
64	0xbc272ed5	-0.010204037
65	0x3ca73e7f	0.020415543
66	0xbd240c01	-0.04005051
67	0x3d0cd428	0.034382015
68	0x3bf2dac8	0.0074113347
69	0xbd8ac670	-0.0677613
70	0x3d7da895	0.06192835
71	0x3bc52181	0.006015957
72	0x3dd55ec6	0.10418467
73	0x3d9437d8	0.07237214
74	0xbc639a82	-0.013891818
75	0x3c747c50	0.014922217
76	0xbd24b2da	-0.04020963
77	0x3cab36c5	0.02090014
78	0x3d1b2c68	0.037884146
79	0x3c5ee5ab	0.013604562
80	0x3dcd9098	0.10037345
81	0x392513d4	0.00015743013
82	0x3d5befe5	0.053695578
83	0x3e11101f	0.14166306
84	0xbd946fbe	-0.07247876
85	0x3da2b451	0.07944549
86	0xbd42ab7b	-0.047526818
87	0xbd690e99	-0.056898687
88	0xbdcabe4a	-0.09899576
89	0xbdeea27a	-0.11652084
90	0xbd4a6a6b	-0.049417894
91	0x3db60c7c	0.088891
92	0x3d9f97e7	0.07792645
93	0xbca1c929	-0.019749241
94	0x3cb54857	0.02212922
95	0x3d773530	0.060353458
96	0x3bd27cae	0.0064235544
97	0x3d755378	0.059894055
98	0xbd373371	-0.044726793
99	0xbca7d6b2	-0.020488117
100	0xbd882b92	-0.066489354
101	0x3d6d3dcd	0.057920266
102	0x3d27ec7a	0.040997006
103	0xbdb165ca	-0.08661993
104	0xbd3d3332	-0.0461914
105	0xbd18b152	-0.03727848
106	0xbca7e797	-0.020496173
107	0xbb066267	-0.002050543
108	0xbd96411d	-0.07336638
109	0x3d8f78df	0.07005476
110	0x3d0b44ca	0.03400115
111	0x3c8c4f65	0.017127702
112	0x3c0c7a60	0.008574098
113	0x3d428a18	0.047494978
114	0x3d8ddf76	0.069273874
115	0xbc0cc341	-0.008591474
116	0x3b8649e3	0.0040981635
117	0xbc912fa2	-0.017722908
118	0x3d10851a	0.035283186
119	0x3d443b18	0.04790792
120	0xbbc51408	-0.006014351
121	0xbc53e633	-0.012933302
122	0xbdb3f852	-0.08787598
123	0xbd8fe698	-0.07026404
124	0x3d207fd2	0.0391844
125	0xbbe84eb5	-0.0070894607
126	0x3c785aba	0.01515835
127	0x3d3dafb2	0.046310134
128	0xbd613f1e	-0.054991834
129	0x3c177dd8	0.009246312
130	0x3d3b3489	0.0457044
131	0x3be453f5	0.0069680163
132	0x3d70ecf6	0.058819734
133	0x3ca010e1	0.019539298
134	0xbd9073fb	-0.070533715
135	0x3e1651e7	0.14679681
136	0x3a34073c	0.0006867533
137	0xbcdd875b	-0.027042082
138	0xbd1ff4e5	-0.03905191
139	0xbcecbe2c	-0.028899275
140	0x3c96a2c0	0.018388152
141	0xbc04701f	-0.008083372
142	0x3c7d8af2	0.015475022
143	0x3b402e9d	0.0029324659
144	0x3d1611e4	0.036638156
145	0xbd48199e	-0.048852555
146	0xbcdfb2a1	-0.027306857
147	0xbc1d45fe	-0.009599207
148	0xbd9a2aff	-0.07527732
149	0x3db894aa	0.090127304
150	0xbc4976af	-0.012296363
151	0xbd1bd895	-0.038048346
152	0xbe0566f6	-0.13027558
153	0xba04b659	-0.00050625723
154	0x3cbe1a2e	0.023205843
155	0x3cfd6975	0.030934075
156	0xbd5cdee2	-0.053923495
157	0x3cec81f0	0.028870553
158	0xbdcbfdaa	-0.09960492
159	0xbe33aa9c	-0.17545551
160	0xbcac413b	-0.021027198
161	0xbb590c0e	-0.0033118757
162	0xbd8aa635	-0.06769983
163	0xbd4227be	-0.047401182
164	0xbd364a2b	-0.044504326
165	0xbd5f68c2	-0.054543264
166	0xbd8139b7	-0.06309836
167	0xbdc76093	-0.09735217
168	0xbced0da5	-0.02893717
169	0x3d40c82a	0.04706589
170	0xbb3967e5	-0.0028290686
171	0x3db30381	0.08740903
172	0x3d43261e	0.047643773
173	0x3d946819	0.072464176
174	0x3ced53a0	0.02897054
175	0xbcdf1437	-0.027231319
176	0xbd86f5f0	-0.065898776
177	0xbd8cbc39	-0.06871838
178	0xbc40981c	-0.011755016
179	0xbceb358c	-0.028712057
180	0x3cc5fd20	0.024168551
181	0x3d68fdd1	0.056882683
182	0xbd04a708	-0.032385856
183	0x3cf05eae	0.029342022
184	0xbd321596	-0.043477617
185	0xbd2a1585	-0.04152443
186	0x3d510ef4	0.05103965
187	0xbd41f6f8	-0.04735467
188	0x3cf66045	0.030075202
189	0x3bf6685b	0.0075197644
190	0xbc4651b9	-0.012104445
191	0xbde3c033	-0.111206435
192	0x3d9174b1	0.07102335
193	0x3d385844	0.04500605
194	0xbca8e5f3	-0.02061746
195	0x3e00b1c2	0.12567809
196	0xbddcd6da	-0.10783167
197	0xbba20812	-0.0049448097
198	0xbdf96425	-0.12177304
199	0xbcdc5d5e	-0.02689999
200	0xbd12891d	-0.035775293
201	0xbe087fda	-0.13330022
202	0x3cadf4dd	0.021234924
203	0xbd1fd485	-0.039021034
204	0xbd9b0a84	-0.07570365
205	0x39eeffb8	0.00045585423
206	0x3d2f7864	0.042839423
207	0x3c855857	0.016277475
208	0x3c7d3ca0	0.015456349
209	0xbd53c5a0	-0.05170214
210	0x3d3a3178	0.045457333
211	0x3c77dc23	0.015128168
212	0xbbec7714	-0.0072163437
213	0xbd464ca7	-0.048412945
214	0x3d80775b	0.06272765
215	0xbb46109d	-0.0030222305
216	0xbc418306	-0.011811024
217	0xbca03381	-0.019555809
218	0xbdb07296	-0.086156055
219	0xbbe37e8f	-0.006942577
220	0x3d129b42	0.035792597
221	0xbd61c558	-0.055119842
222	0x3d8ea07c	0.06964204
223	0x3d31a6b0	0.043371856
224	0xbd49ea2f	-0.0492956
225	0xbca04624	-0.019564696
226	0xbd21a124	-0.039460316
227	0xbd83d2b5	-0.064366736
228	0xbd20934f	-0.039202984
229	0x3dae40ad	0.0850843
230	0xbba711a5	-0.005098539
231	0x3b200e8a	0.0024422728
232	0x3d3654b7	0.044514384
233	0x3d32fd32	0.043698497
234	0x3d2e6d71	0.04258484
235	0x3d914436	0.07093088
236	0xbd869b66	-0.06572609
237	0x3dc79448	0.09745079
238	0xbd5235aa	-0.05132071
239	0x3ba2c75a	0.004967612
240	0x39a8ae14	0.00032173155
241	0x3c57a089	0.013160833
242	0xbdbb9f49	-0.091612406
243	0xbd0d284f	-0.03446227
244	0xbdb93760	-0.09043765
245	0x3d56faa8	0.05248514
246	0xbcd5d89b	-0.026104262
247	0x3dc4ca89	0.09608943
248	0x3b969b8f	0.0045961807
249	0x3d7c04f7	0.061528172
250	0xbbbe485b	-0.0058069653
251	0xbd1ce367	-0.038302805
252	0xbda59e59	-0.08086843
253	0xbc981ce4	-0.018568464
254	0xba8896ee	-0.0010420957
255	0xbc8dfd55	-0.017332712

layer1.0.bias f4 [64]
0	0x36ac8042	5.1409306e-06
1	0x3575f45c	9.16252e-07
2	0x34a53314	3.077081e-07
3	0xb545db8e	-7.3707713e-07
4	0x3588ac90	1.0183012e-06
5	0xb74a648f	-1.2063551e-05
6	0xb5b5372a	-1.3501606e-06
7	0xb52a13b3	-6.33586e-07
8	0x377246fe	1.4440853e-05
9	0xb6cbaa79	-6.069717e-06
10	0x341a9757	1.4397425e-07
11	0x362ea9de	2.6026896e-06
12	0xb5793872	-9.284187e-07
13	0xb58d2cb7	-1.0518332e-06
14	0xb6893cfd	-4.090018e-06
15	0x37aa1e7e	2.0279778e-05
16	0x353fb77a	7.142004e-07
17	0x37759bc0	1.4639401e-05
18	0xb683250a	-3.908416e-06
19	0x374c05dc	1.2160712e-05
20	0xb4e89a2e	-4.3325548e-07
21	0x368dff5b	4.2318547e-06
22	0xb51f339c	-5.930722e-07
23	0x36623925	3.3709887e-06
24	0x35fb304c	1.8715014e-06
25	0x37176576	9.023925e-06
26	0x360c82da	2.0937791e-06
27	0xb1f1359e	-7.0201187e-09
28	0xb60d96f8	-2.1098513e-06
29	0x321310be	8.560333e-09
30	0x35b6cc98	1.3619601e-06
31	0x36fb1ec4	7.4839645e-06
32	0x3659db66	3.2463226e-06
33	0x37033f7b	7.822989e-06
34	0x3353f988	4.9354213e-08
35	0xb5908e4a	-1.0770248e-06
36	0x350b18af	5.1817455e-07
37	0x36818d87	3.8609755e-06
38	0xb547c99a	-7.4426646e-07
39	0xb7cbbab8	-2.4286433e-05
40	0x3480886f	2.3941126e-07
41	0x33b94beb	8.628543e-08
42	0xb7b84490	-2.1966436e-05
43	0xb621510a	-2.403804e-06
44	0x3437b244	1.7108056e-07
45	0xb57a8b66	-9.333511e-07
46	0xb62a192f	-2.5346633e-06
47	0xb68a178c	-4.1154617e-06
48	0x348aa424	2.582393e-07
49	0xb75361ee	-1.2599381e-05
50	0x35e3a95d	1.6962109e-06
51	0x358b50aa	1.0379783e-06
52	0x34a64da8	3.0976412e-07
53	0xb50c318e	-5.2226176e-07
54	0x376a231f	1.3955664e-05
55	0x34a65139	3.0979007e-07
56	0x379e5ceb	1.8878336e-05
57	0xb4d18675	-3.9027114e-07
58	0xb45f9c7a	-2.0825419e-07
59	0xb692e9a5	-4.378339e-06
60	0xb57a00d6	-9.3133474e-07
61	0x3610ca6a	2.1575493e-06
62	0x34c538db	3.6735477e-07
63	0x37698b2c	1.3920286e-05

layer1.1.weight f4 [64]
0	0x3f8b9384	1.0904393
1	0x3f78ed99	0.97237545
2	0x3f7287fa	0.94738734
3	0x3f752b22	0.9576894
4	0x3f7e85ae	0.9942273
5	0x3f857a3e	1.042793
6	0x3f6e9930	0.93202496
7	0x3f7050b1	0.93873125
8	0x3f877167	1.0581483
9	0x3f7bf864	0.9842589
10	0x3f704a72	0.93863595
11	0x3f773144	0.9655955
12	0x3f7017e2	0.9378644
13	0x3f7b1d8b	0.98091954
14	0x3f77e5eb	0.968352
15	0x3f864baa	1.0491841
16	0x3f72c90d	0.9483803
17	0x3f862dcf	1.048273
18	0x3f78161a	0.96908724
19	0x3f736cd7	0.9508795
20	0x3f703fdc	0.9384744
21	0x3f80e805	1.0070807
22	0x3f721d34	0.9457581
23	0x3f6efaaa	0.93351233
24	0x3f776daa	0.9665171
25	0x3f79d691	0.9759303
26	0x3f74dccf	0.9564943
27	0x3f707366	0.93926084
28	0x3f6b47c5	0.91906387
29	0x3f6e54dc	0.93098235
30	0x3f751314	0.95732236
31	0x3f8008ba	1.0002663
32	0x3f73da15	0.9525464
33	0x3f7ded2f	0.9919004
34	0x3f6f046f	0.9336614
35	0x3f6bb82c	0.920779
36	0x3f6e48d3	0.9307987
37	0x3f73d991	0.95253855
38	0x3f6ea167	0.9321503
39	0x3f89951f	1.0748633
40	0x3f6d4575	0.9268411
41	0x3f6e2dc4	0.9303858
42	0x3f87635e	1.05772
43	0x3f7be233	0.9839203
44	0x3f71ae0b	0.94406193
45	0x3f6d9f78	0.92821455
46	0x3f78aea2	0.9714147
47	0x3f74420b	0.95413274
48	0x3f6e0ce4	0.9298842
49	0x3f80f763	1.0075496
50	0x3f788036	0.97070634
51	0x3f6e3598	0.9305053
52	0x3f6ec3cc	0.9326751
53	0x3f7727b2	0.96544945
54	0x3f790c75	0.9728463
55	0x3f729a13	0.9476635
56	0x3f83491f	1.025669
57	0x3f72c916	0.9483808
58	0x3f6d8ead	0.9279583
59	0x3f7bb9e2	0.9833051
60	0x3f7784e5	0.96687156
61	0x3f7fd388	0.99932146
62	0x3f6a583a	0.91540873
63	0x3f875c73	1.0575088

layer1.1.bias f4 [64]
0	0xbc7aaa87	-0.015299446
1	0xbcd6b59f	-0.02620965
2	0xbcb5fc8f	-0.022215156
3	0x3acab15a	0.0015464232
4	0xbcba631c	-0.022752337
5	0xbcfe2f74	-0.031028487
6	0xbd8361ca	-0.06415136
7	0xbce479e0	-0.027890146
8	0xbced4c7a	-0.02896713
9	0xbcc321d2	-0.023819838
10	0xbd071bd0	-0.03298551
11	0xbc97fa3b	-0.018551936
12	0xbd09f6fd	-0.033682812
13	0xbcb2f6aa	-0.021846134
14	0xbd113131	-0.035447303
15	0xbd3cbf8b	-0.046081107
16	0xbd62ffae	-0.055419616
17	0xbcbf15f8	-0.023325905
18	0xbd603cfc	-0.05474566
19	0xbd16d03c	-0.03681968
20	0xbc6302c8	-0.013855644
21	0xb850d7f0	-4.9792172e-05
22	0xbd1a823f	-0.03772187
23	0xbd3bcace	-0.045847706
24	0xbd4aa2ab	-0.04947154
25	0xbc9fbef3	-0.019500231
26	0x3bcd2920	0.006261006
27	0xbd747856	-0.059685074
28	0xbd3da995	-0.046304304
29	0xbd2fe74c	-0.04294519
30	0xbd01b484	-0.031666294
31	0xbc4ad131	-0.012378977
32	0xbb4af4c7	-0.0030968653
33	0xbd0df0b3	-0.034653377
34	0xbd3cd764	-0.04610385
35	0xbd4d0030	-0.050049007
36	0xbd5206be	-0.05127596
37	0xbcfd8462	-0.030946914
38	0xbd2ebff7	-0.04266354
39	0xbc76ee41	-0.015071453
40	0xbd5d0ce9	-0.05396739
41	0xbcef43f7	-0.029207213
42	0xbc938e1a	-0.018012095
43	0xbd235af4	-0.03988166
44	0xbcead96d	-0.02866813
45	0xbd6d98d0	-0.05800706
46	0xbcb4a269	-0.0220501
47	0xbd03b7a1	-0.032157544
48	0xbd5c4294	-0.05377443
49	0xbb87df6c	-0.004146507
50	0xbca2b7c5	-0.019863019
51	0xbcfe3af0	-0.031033963
52	0xbd68e410	-0.056858122
53	0xbc8341f8	-0.016022667
54	0xbd0f109c	-0.03492795
55	0xbc4da4e2	-0.012551518
56	0xbd2d4c12	-0.042308874
57	0xbc99aa5b	-0.01875799
58	0xbd0c40ba	-0.034241416
59	0xbc69972f	-0.014257236
60	0xbc8bd671	-0.017070027
61	0xbd1d0887	-0.03833821
62	0xbd80ca35	-0.06288568
63	0xbd40be84	-0.04705669

layer1.1.running_mean f4 [64]
0	0xc01f524c	-2.489398
1	0xc038fcaf	-2.8904226
2	0xc0185170	-2.3799706
3	0xc12f059b	-10.9388685
4	0xc005f13a	-2.0928483
5	0xc0059cf5	-2.087705
6	0xc0b991ef	-5.799064
7	0xbf8fda71	-1.1238538
8	0xc03fa10e	-2.994205
9	0xc010bdc0	-2.2615814
10	0xc0e5ad3b	-7.1773963
11	0xc053ee63	-3.311425
12	0xc0997fa0	-4.796829
13	0xbf3481a6	-0.7051033
14	0xc0ae9e79	-5.456845
15	0xc016d30b	-2.356631
16	0xbf27a476	-0.6548532
17	0xc00c3f07	-2.191347
18	0xbff1a46b	-1.8878301
19	0xc09ad404	-4.838381
20	0xc11e9167	-9.910499
21	0xc0942dc5	-4.630587
22	0xc08c4f46	-4.384677
23	0x3fc6478b	1.5490583
24	0xc0dc6c20	-6.888199
25	0xc1255ec2	-10.335634
26	0xbdf6b2ec	-0.120458454
27	0xc0d1a59d	-6.5514665
28	0xc05dff28	-3.4686985
29	0xc12305b9	-10.188897
30	0xc113725c	-9.21542
31	0xc0921ff2	-4.5663996
32	0xc0e046e8	-7.0086555
33	0xc0ab52ec	-5.3538723
34	0xc07f6ac1	-3.9908907
35	0xc08414ec	-4.127554
36	0xc1036a6e	-8.213484
37	0xc09117ca	-4.534154
38	0x409ac73c	4.8368206
39	0xbff83b06	-1.9393013
40	0xbefb0cb4	-0.4903313
41	0xbfc4235c	-1.5323291
42	0xbfaefbd8	-1.3670607
43	0xc0920512	-4.563119
44	0xc16a45c3	-14.642032
45	0xc0931f67	-4.5975833
46	0xc0c402d6	-6.125346
47	0xc0cf94ec	-6.486929
48	0xc0b254be	-5.5728445
49	0xc084d8c3	-4.15146
50	0xc0486bd6	-3.1315818
51	0xc1178c45	-9.4717455
52	0xc106c1f0	-8.422348
53	0xbfd187bb	-1.6369547
54	0xbf580959	-0.84389263
55	0xc0a970a0	-5.294998
56	0xbf8b3ade	-1.087734
57	0xc044b7d9	-3.0737212
58	0xc0add959	-5.4327817
59	0xc10a78b4	-8.654469
60	0xc09e768c	-4.951971
61	0xc050e5d4	-3.2640276
62	0xc05d4d0d	-3.4578278
63	0xc05fcf57	-3.49703

layer1.1.running_var f4 [64]
0	0x41f56564	30.674507
1	0x4253e21d	52.970814
2	0x41b14b6f	22.161833
3	0x42abda48	85.92633
4	0x41808b3f	16.067991
5	0x416fb7c1	14.982362
6	0x41f9af2c	31.210533
7	0x42af290a	87.580154
8	0x4218e573	38.22407
9	0x41d4673f	26.550413
10	0x4263be63	56.935925
11	0x42055c21	33.33997
12	0x41fb4406	31.408215
13	0x426cf634	59.240433
14	0x41a0cb25	20.099192
15	0x4252b8dd	52.68053
16	0x4232e9e4	44.72841
17	0x422255f3	40.583935
18	0x41d0dab9	26.106798
19	0x41c0b2fd	24.087397
20	0x420402e9	33.002842
21	0x41ba1208	23.258804
22	0x4289ee96	68.96599
23	0x4236aa82	45.66651
24	0x428824db	68.07198
25	0x42350518	45.254974
26	0x421a19a6	38.525047
27	0x42c1794d	96.736916
28	0x42887b46	68.24077
29	0x430783b3	135.51445
30	0x4294d3ea	74.413895
31	0x421c9037	39.140835
32	0x41e8ed63	29.115911
33	0x42139751	36.89777
34	0x42dbcf8e	109.90538
35	0x4299c83e	76.8911
36	0x429f03cd	79.50742
37	0x41f12f6a	30.148151
38	0x427e1018	63.515717
39	0x419fe534	19.986916
40	0x42be1fa4	95.0618
41	0x420cacfb	35.168926
42	0x41de25bb	27.768423
43	0x42064839	33.57053
44	0x43125b08	146.35559
45	0x4244d0ea	49.204018
46	0x4255d3da	53.456886
47	0x41f690bc	30.820671
48	0x427f89c2	63.88453
49	0x420d960d	35.396534
50	0x41b44b37	22.536726
51	0x42dfbcf1	111.869026
52	0x42959e3c	74.80905
53	0x42a4cb8d	82.39756
54	0x4186d7d8	16.855392
55	0x4247b912	49.930733
56	0x42116e75	36.35787
57	0x426b231c	58.784286
58	0x42958917	74.76775
59	0x422ac1e2	42.68934
60	0x42f11511	120.541145
61	0x41976f2d	18.929285
62	0x429d0dff	78.527336
63	0x42500bd8	52.011566

layer2.0.weight f4 [64, 64, 3, 3]
0	0xbd153ba0	-0.036433816
1	0xbd9784b2	-0.073983565
2	0x3e0fd10e	0.14044592
3	0x3c33de36	0.010978272
4	0xbcbe96f2	-0.023265336
5	0x3e0fe94e	0.14053842
6	0x3bef06d0	0.0072945133
7	0x3cbcae8e	0.023032453
8	0x3d0c8030	0.034301937
9	0xbdf08848	-0.117447436
10	0x3ca272c3	0.019830113
11	0x3aca9927	0.001545702
12	0x3cf15e70	0.029463977
13	0xbc6d747a	-0.014493102
14	0xbd7627bc	-0.060096487
15	0xbd5213f2	-0.051288553
16	0x3b10ea9a	0.002211249
17	0xbd43663c	-0.04770492
18	0x3cb7ddea	0.022444684
19	0x3d4cc460	0.049991965
20	0xbd01a147	-0.031647947
21	0x3d53eb35	0.051737983
22	0xbcaeb90e	-0.021328475
23	0xbcfa244c	-0.030534886
24	0xbc93c011	-0.01803592
25	0x3d480aa6	0.04883828
26	0x3cc45bf0	0.02396962
27	0x3d912167	0.07086449
28	0x3d8b5e5f	0.06805109
29	0xbd5c0e84	-0.05372478
30	0x3bb9c45e	0.0056691607
31	0xbcd59b54	-0.026075043
32	0x3e0c00dd	0.13672204
33	0xbcc888f0	-0.02447936
34	0x3c526a4a	0.012842724
35	0x3d7d1dc3	0.06179596
36	0xbd2bc302	-0.04193402
37	0x3dad5221	0.084629305
38	0x3dcac180	0.099001884
39	0xbd70ca65	-0.05878677
40	0x3df4a914	0.119463116
41	0x3dda9e77	0.10674756
42	0x3ce22dc3	0.027609712
43	0xbd5aab95	-0.05338629
44	0x3cab3904	0.02090121
45	0x3d11cd98	0.03559646
46	0x3c90ee74	0.017691828
47	0x3d66c99f	0.056344625
48	0xbdccb740	-0.0999589
49	0x3dcf64bd	0.10126636
50	0x3d7590d9	0.05995259
51	0xbcd49d38	-0.025953874
52	0x3e14f2ac	0.14545697
53	0xbaabbbec	-0.001310227
54	0xbda54fbe	-0.0807185
55	0x3cfe377d	0.031032318
56	0x3d247f3a	0.040160395
57	0x3dc04774	0.093886286
58	0xbc01801e	-0.007904081
59	0x3cc28de9	0.023749309
60	0xbccbb5ac	-0.024866901
61	0xbd2e9649	-0.04262379
62	0xbe068946	-0.13138303
63	0xbd80552e	-0.06266247
64	0xbc9816eb	-0.018565616
65	0xbdb74e9c	-0.089505404
66	0x3b100b3e	0.0021979357
67	0xbdcf173f	-0.10111856
68	0xbaf572d8	-0.0018726243
69	0x3bcd2e77	0.0062616426
70	0xbcc3f2a5	-0.023919413
71	0x3d716eea	0.058943667
72	0x3e102da3	0.14079909
73	0xbd17a289	-0.03702024
74	0x3e0f6a6e	0.14005443
75	0x3bbaec0a	0.0057044076
76	0x3e24968b	0.16073053
77	0x3e331227	0.17487393
78	0xbc0cc2fc	-0.00859141
79	0xbbb5494d	-0.00553242
80	0xbd74fe98	-0.059813112
81	0xbc489da0	-0.012244612
82	0x3d4a2417	0.049350824
83	0x3d291708	0.04128173
84	0x3c34d97d	0.011038181
85	0x3db35982	0.08757307
86	0x3c82ee9b	0.015982917
87	0xbd27d4da	-0.040974475
88	0x3d85f89f	0.06541561
89	0xbd130b2f	-0.035899337
90	0xbdf0f241	-0.11764956
91	0x3d162be6	0.03666296
92	0xbd0dc58e	-0.03461223
93	0x3d8afe07	0.06786733
94	0xbad568e6	-0.0016281873
95	0xbd0c4f14	-0.034255102
96	0xbd13ea0d	-0.03611188
97	0xbb8f5d66	-0.0043751476
98	0x3bf8885b	0.007584614
99	0x3daeef3b	0.08541723
100	0x3d8cb632	0.068706885
101	0xbd6193b2	-0.055072494
102	0x3ba3104b	0.0049763075
103	0x3cefac6e	0.029257026
104	0xbd96de5e	-0.07366632
105	0x3d602e62	0.054731734
106	0x3da4ad81	0.08040906
107	0xbda1d834	-0.079025656
108	0x3d1aeafd	0.03782176
109	0xbdcb2c73	-0.099205874
110	0xbcb6878f	-0.022281436
111	0x3d40158e	0.046895556
112	0x3d25ff68	0.040526778
113	0xbc1c5677	-0.009542099
114	0x3db10ceb	0.08645042
115	0x3da8da3b	0.08244749
116	0x3b56588a	0.0032706582
117	0x3dafd17e	0.08584879
118	0xbdcf6759	-0.10127134
119	0x3cd33664	0.025782771
120	0xbd56ab9b	-0.05240975
121	0x3d096429	0.033542786
122	0x3ce30766	0.027713489
123	0x3c995809	0.018718736
124	0x3c1f6238	0.009728007
125	0xbcafb99e	-0.021450814
126	0x3c3eb0f4	0.011638869
127	0xbcd4ac72	-0.025961135
128	0xbcecebe9	-0.028921084
129	0x3d95a416	0.073066875
130	0xbd587712	-0.05284793
131	0xbdb11450	-0.086464524
132	0x3d7cb691	0.061697546
133	0xbce9117f	-0.028450726
134	0x3c5feb5c	0.013666954
135	0xbd32b59a	-0.04363022
136	0x3dd13345	0.10214857
137	0x3d990304	0.07471278
138	0x3ca34425	0.019929955
139	0x3be71f5c	0.007053299
140	0x3de142f4	0.109990984
141	0x3d2a2fef	0.04154962
142	0xbd8f18d0	-0.069871545
143	0x3cf27583	0.02959705
144	0x3d4c2908	0.049843818
145	0x3d97a2a7	0.0740407
146	0xbcacb144	-0.02108062
147	0xbb1f9317	-0.0024349147
148	0x3c974afc	0.018468373
149	0x3d6e2ba6	0.058147095
150	0xbcbfe668	-0.023425296
151	0x3da6018b	0.08105763
152	0x3d53f8ae	0.05175083
153	0xbd4daeab	-0.050215404
154	0x3d3927e5	0.045204062
155	0x3e1b1bcd	0.15147324
156	0x3d599f13	0.05313022
157	0x3c8504b5	0.016237596
158	0x3e195715	0.14974625
159	0xbcd0b6c8	-0.025477782
160	0xbdc73143	-0.09726193
161	0x3d9cd3a7	0.07657557
162	0xbd1c0d95	-0.03809889
163	0xbd365790	-0.0445171
164	0x3e18f11e	0.14935729
165	0x3d6ed28e	0.05830627
166	0x3b548c1e	0.003243215
167	0x39fe494b	0.00048501263
168	0x3d5a26aa	0.05325953
169	0x3df9b129	0.12191994
170	0xbca6b8b7	-0.02035175
171	0xbd565667	-0.052328493
172	0x3deedf27	0.11663657
173	0xbc9c1365	-0.019052217
174	0x3d7b0697	0.06128558
175	0x3bce8a9c	0.0063031446
176	0xbd0f1377	-0.034930672
177	0xbd3bb3c5	-0.04582574
178	0x3db50c35	0.08840219
179	0x3c7e3159	0.015514695
180	0x3c7d705b	0.015468682
181	0x3c370cf2	0.01117252
182	0x3d8eb4b5	0.06968061
183	0x39f00f0a	0.00045787572
184	0x3df2ecb9	0.118615575
185	0x3d210a0a	0.039316215
186	0x3d84d22b	0.06485399
187	0xbd5e9e48	-0.054350168
188	0x3b6eae92	0.003641997
189	0x3d530146	0.051514886
190	0xbbe0c652	-0.006859579
191	0xbd5eb92d	-0.054375816
192	0xbc855f39	-0.016280757
193	0x3c20fbdc	0.009825673
194	0x3e089a6d	0.13340159
195	0x3d319a13	0.043359827
196	0xbd7b563f	-0.061361548
197	0xbc093f51	-0.008376912
198	0x3da1ec0a	0.07906349
199	0xbda23022	-0.07919337
200	0xbd7bb948	-0.061455995
201	0x3c798978	0.015230529
202	0xbdda4410	-0.10657513
203	0xbd28de01	-0.041227344
204	0x3c8560ae	0.016281452
205	0xbdd901ea	-0.10596068
206	0xbd9357b8	-0.071944654
207	0x3dbf34bb	0.093362294
208	0xbaa8d8ca	-0.0012881991
209	0xbce96e97	-0.028495116
210	0x3d5d71c4	0.054063573
211	0x3b2072c4	0.0024482468
212	0xbdea899f	-0.114520304
213	0x3dab9dd3	0.08379712
214	0xbc9ead03	-0.019369608
215	0xbddd852a	-0.10816415
216	0x3d2e73a6	0.04259076
217	0xbd619d34	-0.05508156
218	0xbd8a58a1	-0.06755186
219	0x3daf3652	0.08555283
220	0xbe3cd572	-0.18440798
221	0xbcea1a26	-0.028576922
222	0xbd086fda	-0.033309795
223	0xbd01f697	-0.031729307
224	0x3bf40cfe	0.007447838
225	0xbd3a3c34	-0.04546757
226	0xbd9e1bcd	-0.07720146
227	0x3da0fef0	0.078611255
228	0x3d4ffa85	0.050776023
229	0x3d193c30	0.037410915
230	0xbb9eab5e	-0.004842206
231	0xbd61fdb8	-0.055173606
232	0xbaeaaf8c	-0.00179051
233	0x3dc2fcea	0.09520896
234	0xbbf3f1aa	-0.00744458
235	0xbdcd95de	-0.100383505
236	0xbdb63a17	-0.088977985
237	0x3deea16b	0.11651882
238	0x3cae20e0	0.02125591
239	0x3d46b62f	0.048513588
240	0x3d595ce7	0.053067114
241	0x3a841d6e	0.0010079572
242	0xbe28b47f	-0.16475104
243	0xbb8db616	-0.004324685
244	0x3d2666fd	0.04062556
245	0x3d41a1d6	0.04727348
246	0xbd042f33	-0.032271575
247	0x3d5a8c83	0.05335666
248	0x3b95ff3e	0.0045775464
249	0x3d2c30d3	0.04203875
250	0xbbf5dbce	-0.0075030094
251	0xbd3491b3	-0.044084262
252	0x3dad6433	0.08466377
253	0xbd9669d8	-0.07344407
254	0x3c8b9fd9	0.017043995
255	0x3d734dca	0.059400357

layer2.0.bias f4 [64]
0	0xb66d1d76	-3.53329e-06
1	0xb777bd31	-1.4766397e-05
2	0xb786e47e	-1.6080445e-05
3	0xb71e69d5	-9.442175e-06
4	0x3733aa3c	1.0708867e-05
5	0xb6804d08	-3.823665e-06
6	0xb75b5190	-1.30724075e-05
7	0xb6c20329	-5.7820184e-06
8	0xb5e492cf	-1.7030051e-06
9	0x37318c63	1.05827085e-05
10	0x374b399d	1.2113157e-05
11	0xb74d803c	-1.2248809e-05
12	0xb42075cc	-1.4944015e-07
13	0x371f9182	9.511017e-06
14	0x3742f64c	1.1620647e-05
15	0xb6fec007	-7.592145e-06
16	0x3713474a	8.778481e-06
17	0xb5a7e552	-1.2509211e-06
18	0x368bd2d3	4.167066e-06
19	0xb7382e29	-1.0978002e-05
20	0x37374fbb	1.0926214e-05
21	0x3736c3ec	1.0893662e-05
22	0xb6bedd55	-5.6882077e-06
23	0xb475c1e0	-2.2887934e-07
24	0x3691fe55	4.350945e-06
25	0xb6195d1c	-2.2852973e-06
26	0xb62fc533	-2.6191817e-06
27	0x37bf3a7a	2.2796205e-05
28	0xb5b9c543	-1.3840985e-06
29	0xb6f63711	-7.337782e-06
30	0x369e2a94	4.7137237e-06
31	0xb683a2b4	-3.9230454e-06
32	0x376d7107	1.4152617e-05
33	0x3673cb9d	3.632834e-06
34	0x36cdd682	6.134448e-06
35	0xb5571aaa	-8.013254e-07
36	0xb78628fe	-1.5993133e-05
37	0xb69a53a9	-4.599297e-06
38	0xb760f561	-1.3408572e-05
39	0x3600c76e	1.918957e-06
40	0xb61aa661	-2.3044634e-06
41	0xb7716192	-1.4387437e-05
42	0xb612788a	-2.1825858e-06
43	0x36186e1a	2.2713853e-06
44	0xb68c6790	-4.1843814e-06
45	0xb79964cf	-1.8285964e-05
46	0x37a4a3b8	1.9626561e-05
47	0x37188fb6	9.093366e-06
48	0xb62f7867	-2.6147115e-06
49	0x373fab55	1.14243785e-05
50	0x36a1ca18	4.8217007e-06
51	0x371c9a10	9.334195e-06
52	0x368a494c	4.1212534e-06
53	0x36e54758	6.8330373e-06
54	0xb7916712	-1.7333343e-05
55	0x35eee123	1.7797905e-06
56	0x345becfa	2.0482176e-07
57	0xb5e8465f	-1.7305828e-06
58	0x3680768a	3.828497e-06
59	0xb7299cee	-1.0109723e-05
60	0xb71dc1a0	-9.403011e-06
61	0xb69fede4	-4.7662634e-06
62	0x35965178	1.1199581e-06
63	0x36f74a67	7.369835e-06

layer2.1.weight f4 [64]
0	0x3f92006a	1.1406376
1	0x3f903f24	1.1269269
2	0x3f91b171	1.1382276
3	0x3f8f4c01	1.119507
4	0x3f9258c1	1.1433336
5	0x3f918f7e	1.1371915
6	0x3f912695	1.1339899
7	0x3f90a301	1.1299745
8	0x3f90cf85	1.131333
9	0x3f9127d5	1.1340281
10	0x3f917a76	1.1365497
11	0x3f91fb9a	1.1404908
12	0x3f91db71	1.1395093
13	0x3f908152	1.1289465
14	0x3f91672d	1.1359612
15	0x3f914504	1.1349187
16	0x3f9121ea	1.1338475
17	0x3f91c65e	1.1388662
18	0x3f9040e7	1.1269807
19	0x3f90c222	1.1309245
20	0x3f91d431	1.1392881
21	0x3f8de09e	1.1084173
22	0x3f91b310	1.138277
23	0x3f9160da	1.1357682
24	0x3f9197c6	1.1374443
25	0x3f8d1310	1.1021442
26	0x3f8eefb1	1.1166898
27	0x3f924da0	1.1429939
28	0x3f905a85	1.1277624
29	0x3f92c050	1.1464939
30	0x3f9283e8	1.1446505
31	0x3f910beb	1.1331762
32	0x3f929fd5	1.1455027
33	0x3f92633b	1.1436533
34	0x3f90bebe	1.130821
35	0x3f91486b	1.1350225
36	0x3f8fff09	1.1249706
37	0x3f8f99d9	1.1218826
38	0x3f9107d5	1.1330515
39	0x3f8fa533	1.122229
40	0x3f8d8219	1.1055328
41	0x3f8f53b3	1.1197418
42	0x3f91c659	1.1388656
43	0x3f92dfd4	1.1474557
44	0x3f91ee9e	1.1400945
45	0x3f91299c	1.1340823
46	0x3f91b083	1.1381992
47	0x3f918778	1.1369467
48	0x3f8c04ce	1.0938966
49	0x3f91b599	1.1383544
50	0x3f9108a7	1.1330765
51	0x3f912937	1.1340703
52	0x3f92d0e1	1.1469995
53	0x3f90e422	1.1319621
54	0x3f92131c	1.1412082
55	0x3f925a59	1.1433822
56	0x3f8f09d8	1.1174879
57	0x3f8f4f89	1.1196147
58	0x3f90f0ae	1.132345
59	0x3f91d34b	1.1392606
60	0x3f8fe1af	1.1240748
61	0x3f921df7	1.1415395
62	0x3f91de8f	1.1396044
63	0x3f926cc3	1.1439441

layer2.1.bias f4 [64]
0	0x3df2a0e5	0.118470944
1	0x3de53534	0.11191788
2	0x3df29dde	0.11846517
3	0x3dc1d3af	0.094642036
4	0x3df2e132	0.11859359
5	0x3de83b00	0.11339378
6	0x3de598ff	0.11210822
7	0x3dddb454	0.108254105
8	0x3ddde9c0	0.108356
9	0x3de78da5	0.113063134
10	0x3df366b4	0.118848234
11	0x3dfb6878	0.12275785
12	0x3dec9924	0.11552647
13	0x3de16f8a	0.110076025
14	0x3ded5b99	0.115897365
15	0x3de907ea	0.113784626
16	0x3deda41c	0.11603567
17	0x3df578a1	0.11985899
18	0x3de08ecd	0.10964737
19	0x3df44792	0.119277135
20	0x3def0e37	0.11672633
21	0x3db79eb6	0.089658186
22	0x3df40378	0.11914724
23	0x3ded540d	0.11588297
24	0x3df703b1	0.12061251
25	0x3da9bebe	0.08288334
26	0x3dd86c06	0.10567479
27	0x3dfedca5	0.12444428
28	0x3dd70797	0.104994945
29	0x3df5cd1b	0.120020114
30	0x3e002556	0.12514243
31	0x3de9ba4a	0.11412485
32	0x3dfb3b31	0.12267149
33	0x3dfbda7b	0.12297531
34	0x3dd8b304	0.105810195
35	0x3df14d59	0.11782331
36	0x3dd2ffad	0.103026725
37	0x3dd8e5a2	0.10590674
38	0x3ddf74b0	0.10910928
39	0x3dd72671	0.10505379
40	0x3dbbc997	0.091693096
41	0x3dd46ddc	0.103725165
42	0x3deebcec	0.11657128
43	0x3e014965	0.12625654
44	0x3df83358	0.12119168
45	0x3de3197b	0.110888444
46	0x3df436b4	0.11924496
47	0x3df3d3cf	0.11905634
48	0x3d985d67	0.0743969
49	0x3df003ec	0.11719498
50	0x3deab092	0.11459459
51	0x3de7beba	0.11315675
52	0x3e021ade	0.12705562
53	0x3ddd09cb	0.107928835
54	0x3dfec0c1	0.12439109
55	0x3dfd0745	0.12354902
56	0x3dd3c8c0	0.103410244
57	0x3dc71b85	0.09722046
58	0x3df3aa8e	0.11897765
59	0x3df8d685	0.12150291
60	0x3ddf657c	0.109080285
61	0x3df616a3	0.12016036
62	0x3e03e37e	0.1287975
63	0x3df87f93	0.12133708

layer2.1.running_mean f4 [64]
0	0x3f5f1eda	0.8715645
1	0x3f9f9886	1.2468421
2	0x3f812a67	1.0091065
3	0x3f834055	1.0254008
4	0x3fa77dba	1.3085244
5	0x3f540792	0.8282405
6	0x3fd39977	1.6531209
7	0x3f435004	0.7629397
8	0x3ed66c2a	0.41879398
9	0x3fb520aa	1.4150593
10	0x3fddaec4	1.7318959
11	0x3f2aa0d8	0.6665168
12	0x3fb702ee	1.4297769
13	0x3ee262ef	0.44216105
14	0x3ed47f01	0.41503146
15	0x3f7e2aaf	0.9928388
16	0x3f8f57dd	1.1198689
17	0x3fd608a9	1.6721393
18	0x3f86b538	1.0524054
19	0x3fad2097	1.3525571
20	0x3f915fa3	1.1357311
21	0x3fa24972	1.2678664
22	0x3ff11a3f	1.8836135
23	0x3fba3afd	1.4549252
24	0x3f8bbc1a	1.0916779
25	0x3f85e179	1.0459434
26	0x4001beaa	2.0272622
27	0x3f729db0	0.9477186
28	0x3f8b2edd	1.0873677
29	0x3f9d7b05	1.2303168
30	0x3f5093b9	0.81475407
31	0x3f8e4b25	1.1116682
32	0x3f8326b1	1.0246183
33	0x3f886d74	1.0658402
34	0x3f9cb5cf	1.2242984
35	0x3f8129af	1.0090846
36	0x3fd68578	1.6759481
37	0x3fbd38c9	1.4782954
38	0x3fcbbd64	1.5917172
39	0x3fc123fc	1.5089107
40	0x3fb69916	1.4265468
41	0x3fb50098	1.4140806
42	0x3f8dc4ac	1.1075644
43	0x3fae5ff3	1.3623031
44	0x3fbd495e	1.4788015
45	0x3f4a58fb	0.79042023
46	0x3fb99096	1.4497249
47	0x3f1f02d3	0.62113684
48	0x4007edad	2.1238816
49	0x3f853033	1.0405334
50	0x3fad9c0e	1.3563249
51	0x3f7a63e3	0.97808665
52	0x3fd9e979	1.7024375
53	0x3f594a9d	0.84879476
54	0x3fb49773	1.4108719
55	0x3f87e692	1.061724
56	0x3fb9bc85	1.4510657
57	0x3fca4d3f	1.5804824
58	0x3fb83db8	1.4393835
59	0x3fb4e858	1.4133406
60	0x3fbad677	1.45967
61	0x3f586bde	0.8453959
62	0x3f65e1e7	0.89797825
63	0x3f41ecb7	0.75751823

layer2.1.running_var f4 [64]
0	0x3f7d3c19	0.98919827
1	0x3f49cb25	0.788256
2	0x3f823128	1.0171251
3	0x3f1d6f5f	0.61498064
4	0x3f37f498	0.71857595
5	0x3f9612ba	1.1724465
6	0x3f68452b	0.9073054
7	0x3f50194e	0.8128861
8	0x3f4115cd	0.7542389
9	0x3f528df1	0.82247835
10	0x3f49f732	0.78892815
11	0x3f5a9b39	0.853931
12	0x3f466206	0.7749332
13	0x3f63e013	0.89013785
14	0x3f20a848	0.62756777
15	0x3f3c39ed	0.7352589
16	0x3f918234	1.136786
17	0x3f335d67	0.70064396
18	0x3f5db8f6	0.86610353
19	0x3f620bcd	0.88299257
20	0x3f3b909a	0.7326752
21	0x3f82005a	1.0156357
22	0x3f5185ac	0.8184459
23	0x3f4a6589	0.7906118
24	0x3f0ac1f3	0.54202193
25	0x3f4070bf	0.75172037
26	0x3f1948da	0.5987679
27	0x3f3eb11e	0.7448901
28	0x3f6ce361	0.9253445
29	0x3f4fc0ee	0.8115376
30	0x3f7833bd	0.96953946
31	0x3f3b65a4	0.73201966
32	0x3fa820cc	1.3135009
33	0x3f31465f	0.69248
34	0x3f687340	0.9080086
35	0x3f520933	0.82045287
36	0x3f34d0b9	0.70630985
37	0x3f4a92c4	0.79130197
38	0x3f0a8c68	0.5412049
39	0x3f661fa0	0.89892006
40	0x3f762938	0.96156645
41	0x3f4babfd	0.7955931
42	0x3f28063d	0.6563452
43	0x3f932653	1.1496071
44	0x3f5c6424	0.860903
45	0x3f37ba4a	0.7176863
46	0x3f80ad69	1.005292
47	0x3f1edf7b	0.62059754
48	0x3f292811	0.6607676
49	0x3f5cdb93	0.86272544
50	0x3f51608a	0.8178793
51	0x3f53240e	0.8247689
52	0x3f4bed3d	0.7965887
53	0x3f204921	0.62611586
54	0x3f2fda8f	0.6869287
55	0x3f5d22c2	0.8638116
56	0x3f4f7a86	0.8104633
57	0x3f3b09b7	0.730617
58	0x3f59ce26	0.8508018
59	0x3f39e49c	0.72614455
60	0x3f6ef6dd	0.93345433
61	0x3f4a9a76	0.7914194
62	0x3f2f5e41	0.68503195
63	0x3f3dadbc	0.7409322

fc1.weight f4 [8, 64]
0	0xbc889c99	-0.016676234
1	0xbd3dc8c5	-0.046334047
2	0xbc7dc9b7	-0.015489987
3	0xbb983174	-0.004644567
4	0xbce4b1a4	-0.027916737
5	0xbb536ae4	-0.0032259757
6	0xbc3b19a1	-0.011419685
7	0xbca5a432	-0.020219896
8	0xbcc740df	-0.024322925
9	0xbc760882	-0.015016677
10	0xbcd59207	-0.026070608
11	0xbce36fc1	-0.02776325
12	0xbc8bf3fd	-0.017084116
13	0xbcb8cab2	-0.02255759
14	0xbc19676f	-0.009363039
15	0xbc8477ab	-0.016170343
16	0xbc7625cf	-0.015023663
17	0xbc877661	-0.01653594
18	0x3bf43aad	0.0074532838
19	0xbc0492c8	-0.008091636
20	0xbc5187c5	-0.012788718
21	0xbc773a55	-0.015089591
22	0xbd31df55	-0.043425877
23	0xbcb51d30	-0.022108644
24	0xbd122ffe	-0.0356903
25	0xbc2dae54	-0.010600645
26	0xbbce82a7	-0.006302196
27	0xbca18059	-0.019714521
28	0xbc42304c	-0.011852335
29	0xbc97a853	-0.01851288
30	0xbc581fea	-0.013191203
31	0xbcd9c68b	-0.02658393
32	0xbd022c20	-0.031780362
33	0xbc95b40a	-0.018274326
34	0xbc85bd6b	-0.016325673
35	0xbd0b8c7a	-0.034069516
36	0xbc8a4101	-0.0168767
37	0xbc80962d	-0.01569661
38	0xbcf97a62	-0.030453864
39	0xbd0bdb1c	-0.034144506
40	0xbcf438f5	-0.029812315
41	0xbd2065d3	-0.039159607
42	0xbadf6f32	-0.0017046689
43	0xbca2488e	-0.019809987
44	0xbb8c3ee5	-0.0042799585
45	0xbcad29de	-0.021138128
46	0xbd257c9b	-0.040402036
47	0xbc283bad	-0.010268134
48	0xbcc8aa4a	-0.024495263
49	0xbcdc0848	-0.026859418
50	0xbcf2513d	-0.029579753
51	0xbc4370c1	-0.011928738
52	0xbd15e3fc	-0.036594376
53	0xbc8c0d7c	-0.017096274
54	0xbcd6a3e0	-0.026201189
55	0xbc8d8adf	-0.017278133
56	0xbc177598	-0.009244345
57	0xbd275367	-0.040851023
58	0xbc5871f4	-0.013210762
59	0xbcfff913	-0.031246698
60	0xbc966f4f	-0.018363623
61	0xbc3a32c4	-0.0113646425
62	0xbb35ae7a	-0.0027722404
63	0xbcc83662	-0.024439994
64	0xbca8229d	-0.020524317
65	0x3b295e4c	0.0025843559
66	0xbccdcec5	-0.02512301
67	0xbcc64f8d	-0.024207855
68	0xbcddf4ac	-0.027094208
69	0xbce824a3	-0.028337782
70	0xbd1257b4	-0.03572817
71	0xbcb81595	-0.022471229
72	0xbc3ef397	-0.011654756
73	0xbcab5fe4	-0.020919748
74	0xbc88a447	-0.016679896
75	0xbc38bbcb	-0.011275242
76	0xbc6321aa	-0.013863007
77	0xbc9ceaad	-0.01915487
78	0xbcb090a7	-0.02155335
79	0xbc81ca23	-0.015843457
80	0xbc87c0f0	-0.016571492
81	0xbd1f1c10	-0.03884512
82	0xbc46075d	-0.0120867165
83	0xbc95d3d4	-0.018289484
84	0xbcb892c1	-0.022530915
85	0xbca4dc6f	-0.020124642
86	0xbcb6aa8f	-0.022298126
87	0xbd14918a	-0.03627161
88	0xbcef1e6f	-0.029189317
89	0xbca7f1b7	-0.020501
90	0xbcb9b379	-0.022668587
91	0xbcea716f	-0.028618542
92	0xbc25d7fa	-0.010122294
93	0xbb4ca69a	-0.0031227232
94	0xbc175383	-0.009236219
95	0xbc9e9ec0	-0.019362807
96	0xbcb44fcf	-0.022010712
97	0xbcecf8dd	-0.028927261
98	0xbcc3411d	-0.02383476
99	0xbce8b92a	-0.028408606
100	0xbcadb84e	-0.021206047
101	0xbcb92a8d	-0.022603298
102	0xbb75b30a	-0.0037490749
103	0xbc0593b0	-0.008152887
104	0xbca916d7	-0.020640774
105	0xbce4b046	-0.027916085
106	0xbcd02a4b	-0.025410792
107	0xbc42c360	-0.011887401
108	0xbca83002	-0.020530704
109	0xbc99515c	-0.018715553
110	0xbc8d4a34	-0.017247297
111	0xbccb380d	-0.024807
112	0xbc157e49	-0.009124347
113	0xbcdd2ca4	-0.026998825
114	0xbcadbdd0	-0.021208674
115	0x3a8bb312	0.0010658226
116	0xbc73c5eb	-0.01487873
117	0xbbadf6bd	-0.0053089545
118	0xbd1bef19	-0.03806982
119	0xbd0fd67a	-0.03511665
120	0xbc934708	-0.017978206
121	0xbca5217d	-0.02015757
122	0xbbf9e14a	-0.0076257335
123	0xbc9371ae	-0.017998543
124	0xbc5f463f	-0.013627588
125	0xbcb1e6b6	-0.021716457
126	0xbcc4a948	-0.0240065
127	0xbce5ff85	-0.028075943
128	0x3dd2c0fb	0.10290714
129	0x3de4e8dc	0.11177227
130	0x3defadf1	0.117030986
131	0x3dff7b81	0.124747284
132	0x3dd4b789	0.10386569
133	0x3e00cc4d	0.12577935
134	0x3dd56d27	0.1042121
135	0x3ded627d	0.11591051
136	0x3dd16d2a	0.102258995
137	0x3dd8cb14	0.10585609
138	0x3dd115b4	0.10209218
139	0x3dcbf8ae	0.09959541
140	0x3ddef138	0.108858526
141	0x3dbc84b8	0.092050016
142	0x3dd1f905	0.10252575
143	0x3dc34192	0.09533991
144	0x3dc8d7e4	0.09806803
145	0x3dac415b	0.08410903
146	0x3de03468	0.10947496
147	0x3dc6f97a	0.09715553
148	0x3dbedeab	0.09319814
149	0x3dc10457	0.09424656
150	0x3ddd5ace	0.10808335
151	0x3df80974	0.12111178
152	0x3ddbea9a	0.10738106
153	0x3ddbc7bc	0.10731456
154	0x3df19410	0.11795819
155	0x3dea64d3	0.11445012
156	0x3dc70fa6	0.097197816
157	0x3dd3ce66	0.10342102
158	0x3dc987f4	0.09840384
159	0x3dba795a	0.09105177
160	0x3dc54832	0.09632911
161	0x3dc2ab2d	0.095053054
162	0x3dbea33b	0.093084775
163	0x3df6e37f	0.1205511
164	0x3db4aae9	0.08821661
165	0x3de3abdb	0.11116763
166	0x3dca3f45	0.09875349
167	0x3dcbbfc7	0.09948688
168	0x3de299f6	0.11064522
169	0x3dcc0c12	0.0996324
170	0x3dd0c999	0.10194702
171	0x3ddb54bc	0.10709521
172	0x3de8f2a4	0.11374405
173	0x3dd39236	0.10330622
174	0x3df87333	0.121313475
175	0x3de0e660	0.109814405
176	0x3dbb0e96	0.091336414
177	0x3df50db6	0.11965506
178	0x3dee2a27	0.11629134
179	0x3de9ae32	0.11410178
180	0x3de476b2	0.11155452
181	0x3dfd2e79	0.123623796
182	0x3dc3eb4a	0.09566362
183	0x3ddbd07e	0.10733126
184	0x3dbe7403	0.09299471
185	0x3deb1ddf	0.11480307
186	0x3db6544d	0.08902798
187	0x3dbd165b	0.092327796
188	0x3ddf2f09	0.10897643
189	0x3db3582a	0.0875705
190	0x3de35680	0.11100483
191	0x3ddaa433	0.1067585
192	0x3dc06867	0.09394913
193	0x3dce8f54	0.100859314
194	0x3de2839a	0.11060257
195	0x3de1b709	0.11021239
196	0x3de13fc1	0.10998488
197	0x3dbb2aa7	0.09138995
198	0x3d9ba8a8	0.07600528
199	0x3dcf0bb0	0.10109651
200	0x3dcf021c	0.10107824
201	0x3dda888f	0.10670578
202	0x3dbb9bd4	0.09160581
203	0x3df48251	0.119389184
204	0x3dc5e34e	0.096624956
205	0x3df658f8	0.12028688
206	0x3dbf06eb	0.093274914
207	0x3dd2dbe6	0.102958485
208	0x3dc7d388	0.09757143
209	0x3dc5c26a	0.09656222
210	0x3da8e9a6	0.0824769
211	0x3dd57de2	0.10424401
212	0x3dc923c4	0.09821275
213	0x3ddff1db	0.10934802
214	0x3de57343	0.11203625
215	0x3dc11068	0.09426957
216	0x3dd7f51d	0.105447985
217	0x3dc8681d	0.09785483
218	0x3da79c7b	0.08184143
219	0x3de65d11	0.1124822
220	0x3ddab25f	0.10678553
221	0x3dd4aee2	0.10384919
222	0x3db04ea6	0.08608751
223	0x3dcf8f2b	0.10134729
224	0x3dbebf33	0.09313812
225	0x3dd1e3c6	0.102485225
226	0x3dc90903	0.09816172
227	0x3dfb2a90	0.122639775
228	0x3dd9c41b	0.10633107
229	0x3dd2e077	0.102967195
230	0x3dd14ea1	0.102200754
231	0x3df50df0	0.11965549
232	0x3dbcb2fa	0.092138246
233	0x3ddbedd2	0.1073872
234	0x3db095d5	0.08622328
235	0x3dda122e	0.10647999
236	0x3dd2f581	0.103007324
237	0x3df58471	0.11988152
238	0x3dcdad52	0.10042824
239	0x3dc790bf	0.09744405
240	0x3dbfa308	0.093572676
241	0x3df48ba7	0.11940699
242	0x3dcd75d2	0.10032238
243	0x3dd0f926	0.10203771
244	0x3db7e109	0.08978469
245	0x3dd24c54	0.10268465
246	0x3dc507d8	0.09620637
247	0x3dd35313	0.103185795
248	0x3dd39f2f	0.10333096
249	0x3dedac65	0.11605147
250	0x3e02a749	0.12759127
251	0x3dd94416	0.106086895
252	0x3da84601	0.08216477
253	0x3db0f35e	0.086401686
254	0x3de9ce55	0.11416308
255	0x3dbbe193	0.09173884

fc1.bias f4 [8]
0	0x3f7bd854	0.98376966
1	0x3f7c0baf	0.9845533
2	0x3f88ef7d	1.0698086
3	0x3f867eb1	1.0507413
4	0x3f7af29e	0.98026454
5	0x3f884508	1.0646067
6	0x3f7a7972	0.9784156
7	0x3f7ae072	0.97998726

fc2.weight f4 [1, 8]
0	0x3c676dd4	0.014125306
1	0x3c72b1e6	0.014812922
2	0xbdcf6f33	-0.101286314
3	0xbdd8f4c2	-0.10593559
4	0x3c2acba4	0.010424528
5	0xbddc3d51	-0.10753883
6	0x3c443a40	0.0119767785
7	0x3c334b7c	0.01094329
