LearningToCompare/code/omniglot_relation_network_5way_5shot.pkl (torch_old, 449710 bytes, 15 tensors)

layer1.0.weight f4 [64, 128, 3, 3]
-0.016110033 0.037309863 -0.015768748 -0.017305547 -0.0021322542 -0.09464612 -0.053035386 0.018429603
0.016144017 -0.061083563 -0.034258794 -0.12606838 0.02020891 0.069416314 -0.07960017 0.046035
-0.06507059 -0.004685405 0.022162221 0.051037185 0.02932013 0.025719402 0.10664197 0.0739676
-0.07413194 0.0048772413 -0.19058782 0.057894964 0.09961326 0.03971203 -0.03892982 -0.008508081
-0.16962563 0.03223563 0.017119486 0.03324352 0.11428616 -0.123589516 -0.04841204 0.083887614
0.07826968 -0.039403852 -0.07524887 -0.008539295 0.034977686 -0.0049675805 -0.0049595986 -0.024854489
-0.08279143 -0.101544365 -0.016202502 0.030186338 -0.021830883 -0.07713588 -0.024111826 -0.045892242
0.008948531 0.049111124 -0.036778823 -0.08543525 -0.040950444 0.054559242 -0.06381025 -0.10018198
-0.1411205 0.019495359 0.007502388 -0.0134179015 -0.010150262 0.035511374 0.018726094 -0.013159814
0.011290842 0.049154405 -0.05217352 0.036928944 0.13333641 -0.025532803 -0.016274972 -0.060888417
-0.00938318 -0.03795255 -0.0029515156 -0.042296976 -0.024644366 0.015258942 -0.013746922 -0.07349101
-0.07150957 -0.04272843 0.08102178 -0.0019931514 0.12422655 0.014055129 0.081866235 0.098204836
-0.0704536 -0.124647394 -0.1445883 0.051269 0.050995346 0.06251441 -0.06562979 -0.020448176
0.0086612925 -0.1582474 0.043992378 -0.1021622 0.20055647 -0.03835155 -0.07553349 0.0323418
0.011460289 0.016802225 -0.017745476 -0.03180258 0.009609948 -0.044537008 -0.035704803 -0.01593305
0.0708234 -0.06885821 -0.027576663 -0.119497955 -0.030911313 0.004298011 0.004606964 -0.10989328
0.017227849 -0.042351674 -0.07646967 -0.046088576 0.10326475 -0.0013332961 -0.022943147 -0.022642152
-0.10453661 0.005983383 -0.025502857 -0.031803824 0.06694257 -0.07822377 -0.14811246 0.016654007
-0.029727777 0.04792654 -0.074760415 -0.017143007 -0.0040511815 -0.0024619012 -0.0016645417 -0.03782934
0.07213399 0.04171658 0.04618327 -0.0039291773 -0.12609814 -0.047691807 -0.051476195 0.08266856
0.05039249 0.065414146 -0.06689646 -0.0017493756 0.07452958 0.020911576 -0.046260387 0.083180495
0.023840968 0.07931749 -0.04815622 -0.07259759 0.13044962 -0.07567166 -0.026151689 -0.16811447
0.07536897 -0.009505199 -0.020922737 -0.030018738 0.10602133 0.030957716 -0.073471874 0.014093725
0.027308827 -0.0026354564 -0.020361288 -0.011014703 -0.03910736 -0.075403586 -0.04882784 0.0336875
-0.06546341 0.09051815 -0.02359856 0.039131645 -0.039877564 0.0387065 -0.062316988 -0.038992647
0.111477114 -0.060975865 -0.09823569 -0.07493052 -0.019418148 0.06687289 0.0027073168 0.09500802
-0.09983824 0.080175005 -0.034454398 -0.054116797 0.04195145 0.007009123 -0.043905493 -0.033024076
0.08729669 0.076687954 0.093169525 -0.03574058 -0.002315393 0.079163946 0.078980796 0.0017731589
0.013692854 0.044943478 0.052594706 -0.009217803 0.15181917 0.085018426 -0.05961744 0.11176581
-0.014371458 -0.14237215 -0.2021234 -0.16465865 -0.11716693 0.03129736 -0.06494489 -0.06377213
0.09038489 0.03604198 0.011881471 0.009878139 -0.042924263 0.016973859 0.037619133 -0.0067374352
-0.056544907 -0.0669612 -0.058348045 -0.037723616 -0.020104995 -0.03042231 -0.06200835 0.040144082
00000000: 30f9 83bc 3ad2 183d 762d 81bc 5dc4 8dbc
00000010: 4abd 0bbb d3d5 c1bd a23b 59bd aef9 963c
00000020: 7540 843c c232 7abd f352 0cbd 1218 01be
00000030: 288d a53c 242a 8e3d 6a05 a3bd 328f 3c3d
00000040: bb43 85bd 0788 99bb 8c8d b53c 5e0c 513d
00000050: c530 f03c 7fb1 d23c 1b67 da3d 537c 973d
00000060: 7dd2 97bd 44d1 9f3b 7429 43be 4523 6d3d
00000070: 0902 cc3d 15a9 223d e074 1fbd 7a65 0bbc
00000080: 57b2 2dbe 8209 043d 2a3e 8c3c 5b2a 083d
00000090: dd0e ea3d 801c fdbd b44b 46bd 45cd ab3d
000000a0: db4b a03d ef65 21bd 141c 9abd 66e8 0bbc
000000b0: c344 0f3d 16c7 a2bb 2184 a2bb a49b cbbc
000000c0: 8e8e a9bd 7ef6 cfbd 1cbb 84bc 5749 f73c
000000d0: aed6 b2bc 6bf9 9dbd 2a86 c5bc 81f9 3bbd
000000e0: dc9c 123c bf28 493d 64a5 16bd adf8 aebd
000000f0: a7bb 27bd 8379 5f3d f3ae 82bd 362c cdbd
00000100: e481 10be bbb4 9f3c 98d6 f53b c2d6 5bbc
00000110: 494d 26bc 6074 113d 7767 993c 439c 57bc
00000120: 39fd 383c 2156 493d e7b3 55bd ce42 173d
00000130: 5789 083e 2b2a d1bc 1753 85bc 2266 79bd
00000140: e9bb 19bc 2274 1bbd 376e 41bb 983f 2dbd
00000150: fbe2 c9bc a400 7a3c c53a 61bc 7482 96bd
00000160: 9c73 92bd 0204 2fbd bfee a53d 889f 02bb
00000170: 7d6a fe3d 7c47 663c 7ca9 a73d 9e1f c93d
00000180: fa49 90bd 2247 ffbd f50e 14be 71ff 513d
00000190: 7fe0 503d 8e07 803d e968 86bd ef82 a7bc
000001a0: 18e8 0d3c 9b0b 22be 5a31 343d 6a3a d1bd
000001b0: ad5e 4d3e 8416 1dbd 4db1 9abd d678 043d
000001c0: f0c3 3b3c d2a4 893c f65e 91bc 6c43 02bd
000001d0: 0b73 1d3c 706c 36bd 333f 12bd 0786 82bc
000001e0: dc0b 913d 8905 8dbd 74e8 e1bc 58bb f4bd
000001f0: b939 fdbc 54d6 8c3b 04f6 963b ba0f e1bd
00000200: 6b21 8d3c f378 2dbd 219c 9cbd 60c7 3cbd
00000210: 787c d33d fec1 aeba 44f3 bbbc 097c b9bc
00000220: 4a17 d6bd 4110 c43b 5eeb d0bc ba44 02bd
00000230: 3019 893d c933 a0bd cbaa 17be fc6d 883c
00000240: ab87 f3bc 9f4e 443d fd1b 99bd 7e6f 8cbc
00000250: c6bf 84bb d957 21bb c02c daba f0f2 1abd
00000260: fcba 933d 01df 2a3d ab2a 3d3d 54c0 80bb
00000270: df1f 01be 7c58 43bd b4d8 52bd 224e a93d
00000280: 5b68 4e3d daf7 853d 0301 89bd 4e4b e5ba
00000290: f7a2 983d c14e ab3c 887b 3dbd 895a aa3d
000002a0: 224e c33c 3571 a23d 753f 45bd 0cae 94bd
000002b0: 9694 053e bef9 9abd 113c d6bc 3326 2cbe
000002c0: 0c5b 9a3d b2bb 1bbc 2966 abbc dbe9 f5bc
000002d0: b621 d93d 099b fd3c 6c78 96bd 5ee9 663c
000002e0: c3b6 df3c 9fb7 2cbb b7cc a6bc 0377 34bc
000002f0: 0a2f 20bd 326d 9abd b3ff 47bd e7fb 093d
00000300: ae11 86bd 9461 b93d c451 c1bc 8148 203d
00000310: a856 23bd b58a 1e3d 1940 7fbd c1b6 1fbd
00000320: 1d4e e43d d4c1 79bd cb2f c9bd 2c75 99bd
00000330: cf12 9fbc a7f4 883d 3d6d 313b 9193 c23d
00000340: fe77 ccbd cb32 a43d 0e20 0dbd 93a9 5dbd
00000350: 49d5 2b3d c9ac e53b 3fd6 33bd 4144 07bd
00000360: 9bc8 b23d 930e 9d3d aacf be3d b764 12bd
00000370: d9bd 17bb b520 a23d afc0 a13d 5769 e83a
00000380: fe57 603c a716 383d 8c6d 573d 4506 17bc
00000390: 7c76 1b3e 241e ae3d 6b31 74bd 79e5 e43d
000003a0: 4476 6bbc 01ca 11be 70f9 4ebe 479c 28be
000003b0: 37f5 efbd a931 003d d401 85bd f69a 82bd
000003c0: b71b b93d c1a0 133d 80aa 423c ebd7 213c
000003d0: 5ad1 2fbd c30c 8b3c 8516 1a3d b4c5 dcbb
000003e0: a29b 67bd f422 89bd 5cfe 6ebd 1484 1abd
000003f0: 3bb3 a4bc 3538 f9bc 78fc 7dbd 1f6e 243d

layer1.0.bias f4 [64]
-8.9868545e-06 6.556646e-07 6.972009e-06 -1.1897207e-05 4.0948304e-05 -7.795268e-05 3.071052e-05 1.2488723e-05
4.5062575e-06 1.8338382e-05 -6.514833e-06 -1.6559605e-05 3.501166e-05 1.253998e-05 1.742444e-06 -5.142499e-06
-1.0499943e-05 1.8147009e-06 0.0001860503 -5.783729e-07 0.0001294309 -1.9547729e-06 -8.808655e-06 -2.3008524e-05
-5.62263e-06 -4.997057e-07 6.499293e-05 3.508497e-05 -0.00018690841 3.3790257e-06 4.2946676e-06 -0.0001239416
-0.00014660659 7.9085685e-06 -2.1452266e-05 -6.8465674e-06 1.527996e-05 2.167342e-06 -7.2786697e-06 -6.5816224e-05
-6.368462e-07 -1.5658157e-05 8.369309e-06 -2.2434224e-05 -5.6811714e-05 1.7944594e-06 2.278581e-07 -3.8553146e-05
8.084036e-05 -2.0541569e-05 -1.5965137e-05 7.884691e-06 -1.134156e-06 5.791242e-06 -0.00012413274 -1.6876202e-05
0.00012255866 -0.00011178945 -2.3728228e-06 -0.00025872086 8.757419e-05 -3.128229e-06 4.3617954e-05 5.018998e-06
00000000: 3fc6 16b7 ee00 3035 1af1 e936 1d9a 47b7
00000010: e8bf 2b38 877a a3b8 2bcf 0038 a886 5137
00000020: 7534 9736 60d5 9937 fd99 dab6 7be9 8ab7
00000030: 7cd9 1238 ce62 5237 ecdd e935 bb8d acb6
00000040: e928 30b7 a690 f335 7f16 4339 7c41 1bb5
00000050: d8b7 0739 be2e 03b6 e3c8 13b7 6e02 c1b7
00000060: 06aa bcb6 8423 06b5 d04c 8838 3328 1338
00000070: d8fc 43b9 38c3 6236 ea1a 9036 52f6 01b9
00000080: 68ba 19b9 0baf 0437 64f4 b3b7 91bb e5b6
00000090: 772d 8037 a772 1136 4c3b f4b6 d106 8ab8
000000a0: bdf3 2ab5 a359 83b7 e969 0c37 2131 bcb7
000000b0: 1d49 6eb8 28d9 f035 28a9 7434 20b4 21b8
000000c0: d688 a938 af50 acb7 dfec 85b7 7d48 0437
000000d0: 4e39 98b5 6452 c236 a129 02b9 5e91 8db7
000000e0: 1783 0039 8170 eab8 c93c 1fb6 eda4 87b9
000000f0: 09a8 b738 91ee 51b6 6cf2 3638 dd68 a836

layer1.1.weight f4 [64]
0.82429254 1.0275468 0.9171838 0.90065694 0.9700961 1.0785654 1.0351404 0.85945886
0.90913445 1.0557534 0.898145 0.93963444 0.9334034 0.9227813 0.9406013 0.90992785
0.88340455 0.8940363 1.0517482 0.99195945 1.0775836 0.87369287 0.85292315 0.96399814
0.9040707 0.9628534 0.9177109 0.9410058 1.1232535 0.9845224 0.8702752 1.0422779
1.1086805 0.93926394 0.91754353 0.8826856 0.8844732 0.8784399 1.1024055 0.98421043
0.8610487 1.0489441 0.8729282 0.8763639 1.0100278 0.90164226 0.87330323 0.8920046
0.9522325 0.90349925 0.92327785 0.8824315 0.95561075 0.8560081 1.0896168 0.9190657
0.9863062 1.0103763 0.8532357 1.1046582 0.9940455 0.9009809 0.97543186 0.91829973
00000000: d604 533f a786 833f 8fcc 6a3f 7491 663f
00000010: 3858 783f 6e0e 8a3f 7b7f 843f 7f05 5c3f
00000020: 09bd 683f ed22 873f d5ec 653f e28b 703f
00000030: 86f3 6e3f 653b 6c3f 3fcb 703f 08f1 683f
00000040: cd26 623f 90df 643f af9f 863f 0ef1 7d3f
00000050: 42ee 893f 56aa 5f3f 2c59 5a3f 95c8 763f
00000060: 2d71 673f 8f7d 763f 1aef 6a3f c2e5 703f
00000070: c5c6 8f3f a909 7c3f 5bca 5e3f 5d69 853f
00000080: 3ee9 8d3f 9a73 703f 22e4 6a3f aff7 613f
00000090: d66c 623f 70e1 603f a01b 8d3f 37f5 7b3f
000000a0: b06d 5c3f cd43 863f 3978 5f3f 6259 603f
000000b0: 9748 813f 07d2 663f cd90 5f3f 6a5a 643f
000000c0: 82c5 733f ba4b 673f f05b 6c3f 08e7 613f
000000d0: e8a2 743f 5923 5b3f 9078 8b3f e447 6b3f
000000e0: 907e 7c3f 0354 813f a86d 5a3f 7165 8d3f
000000f0: c479 7e3f afa6 663f e7b5 793f b115 6b3f

layer1.1.bias f4 [64]
-0.1469445 -0.11371871 -0.08737349 -0.040556807 -0.07978037 -0.0660973 -0.09173755 -0.10703259
-0.043378823 -0.10252275 -0.09874401 -0.11782211 -0.047305726 -0.100893326 -0.0978292 -0.05390874
-0.12018051 -0.092856735 -0.062059943 -0.0909045 -0.053299155 -0.064995855 -0.083251074 -0.07744855
-0.054636303 -0.07661116 -0.094861574 -0.053046267 -0.0723589 -0.09156382 -0.1563796 -0.095088646
-0.061587956 -0.056749143 -0.07570634 -0.08167208 -0.11424823 -0.12346859 -0.08237505 -0.07577747
-0.109714046 -0.10780146 -0.0945812 -0.11276859 -0.08358396 -0.07607694 -0.052753903 -0.10553382
-0.082504526 -0.13081586 -0.051080916 -0.10308875 -0.026840284 -0.1519971 -0.0986698 -0.06558081
-0.07250446 -0.07296076 -0.081273064 -0.048899304 -0.11987387 -0.094964206 -0.12543903 -0.09328116
00000000: 9e78 16be 5be5 e8bd dff0 b2bd e51e 26bd
00000010: e463 a3bd 055e 87bd e6e0 bbbd e733 dbbd
00000020: fead 31bd 73f7 d1bd 4d3a cabd b84c f1bd
00000030: a6c3 41bd 29a1 cebd ad5a c8bd 69cf 5cbd
00000040: 3321 f6bd ac2b bebd 9132 7ebd 232c babd
00000050: 3750 5abd 8c1c 85bd 8a7f aabd 589d 9ebd
00000060: 51ca 5fbd 50e6 9cbd c946 c2bd 0b47 59bd
00000070: e730 94bd d085 bbbd f921 20be d6bd c2bd
00000080: a743 7cbd ca71 68bd ed0b 9bbd b143 a7bd
00000090: fafa e9bd 1add fcbd 40b4 a8bd 3831 9bbd
000000a0: c2b1 e0bd 03c7 dcbd cab3 c1bd 38f3 e6bd
000000b0: 112e abbd 3ace 9bbd 7a14 58bd 1e22 d8bd
000000c0: 22f8 a8bd 98f4 05be 393a 51bd 3220 d3bd
000000d0: 28e0 dbbc 21a5 1bbe 6413 cabd 3b4f 86bd
000000e0: 387d 94bd 736c 95bd 7e72 a6bd a34a 48bd
000000f0: 6e80 f5bd 987c c2bd 1773 00be 310a bfbd

layer1.1.running_mean f4 [64]
-7.3507724 -7.0087047 -17.932226 -9.848996 -7.3105307 -4.6130705 -5.9529133 -1.4266198
-5.0541067 -4.3471026 11.112174 -6.5468206 -4.533745 -5.127851 -5.691811 -2.74969
-9.1102915 -14.876053 -2.7714958 -2.8511865 -3.6054618 -6.4815145 -8.945601 -7.244005
-5.6122484 -4.1470685 -1.6645029 -15.971847 -6.175128 -5.3365536 3.3857062 -3.4998393
-2.4943676 -6.878809 -9.11818 -9.919506 -7.2079926 0.44625917 -4.6376104 -6.511798
-4.1124086 -5.3875675 -13.489243 -7.916324 -5.773346 -7.610515 -15.218861 -4.352099
-10.719324 -8.199459 -5.298153 -7.9021134 -10.262006 -2.3862329 -7.0570354 -1.1686386
-4.925791 -5.814498 -2.5948632 -3.4542167 -4.9665127 -8.144924 -4.693811 0.6370088
00000000: 8739 ebc0 4f47 e0c0 3375 8fc1 7d95 1dc1
00000010: deef e9c0 469e 93c0 447e bec0 7a9b b6bf
00000020: 3ebb a1c0 771b 8bc0 77cb 3141 8e7f d1c0
00000030: 7014 91c0 5b17 a4c0 5123 b6c0 ecfa 2fc0
00000040: c1c3 11c1 5004 6ec1 3060 31c0 d779 36c0
00000050: e3bf 66c0 9168 cfc0 2f21 0fc1 e4ce e7c0
00000060: 8a97 b3c0 c9b4 84c0 6e0e d5bf af8c 7fc1
00000070: a69a c5c0 0cc5 aac0 69af 5840 5efd 5fc0
00000080: b8a3 1fc0 341f dcc0 11e4 11c1 4cb6 1ec1
00000090: e0a7 e6c0 157c e43e 4e67 94c0 a660 d0c0
000000a0: da98 83c0 f466 acc0 f0d3 57c1 8752 fdc0
000000b0: 40bf b8c0 5789 f3c0 7480 73c1 6544 8bc0
000000c0: 5a82 2bc1 fc30 03c1 788a a9c0 1dde fcc0
000000d0: 2d31 24c1 0ab8 18c0 3cd3 e1c0 f395 95bf
000000e0: 14a0 9dc0 5e10 bac0 3d12 26c0 e311 5dc0
000000f0: aced 9ec0 9c51 02c1 b333 96c0 0213 233f

layer1.1.running_var f4 [64]
88.81411 72.613075 108.87262 73.25494 52.56579 41.466434 70.55569 142.9156
69.45596 53.99532 208.20934 56.017315 36.17698 67.094894 46.35613 59.02758
171.85585 106.96321 67.69477 74.59514 46.26073 74.78976 110.78329 49.331867
119.90418 68.273964 104.22193 179.96031 64.99159 64.64764 110.51689 48.96
46.58601 149.23827 207.57042 139.651 69.689606 197.39041 45.99487 78.98309
59.47554 40.1861 128.6847 41.411743 52.104916 80.29905 80.49537 151.15324
74.286415 42.748203 55.480175 153.64331 137.43112 121.664505 59.051796 99.89433
39.725327 47.67341 94.47654 26.00997 48.41079 85.95349 52.729897 140.79063
00000000: d3a0 b142 e539 9142 c8be d942 8782 9242
00000010: 5e43 5242 a1dd 2542 831c 8d42 65ea 0e43
00000020: 74e9 8a42 35fb 5742 9735 5043 bb11 6042
00000030: 3ab5 1042 9630 8642 ad6c 3942 3e1c 6c42
00000040: 19db 2b43 2aed d542 b963 8742 b630 9542
00000050: fd0a 3942 5b94 9542 0b91 dd42 d553 4542
00000060: f1ce ef42 458c 8842 a171 d042 d7f5 3343
00000070: b2fb 8142 974b 8142 a608 dd42 0ad7 4342
00000080: 1358 3a42 ff3c 1543 0792 4f43 a8a6 0b43
00000090: 1461 8b42 f263 4543 bffa 3742 58f7 9d42
000000a0: f4e6 6d42 91be 2042 48af 0043 a0a5 2542
000000b0: 6f6b 5042 1d99 a042 a1fd a042 3b27 1743
000000c0: a592 9442 29fe 2a42 b3eb 5d42 b0a4 1943
000000d0: 5e6e 0943 3a54 f342 0a35 6c42 e6c9 c742
000000e0: bce6 1e42 92b1 3e42 fdf3 bc42 6b14 d041
000000f0: a6a4 4142 30e8 ab42 6aeb 5242 67ca 0c43

layer2.0.weight f4 [64, 64, 3, 3]
0.020081155 -0.056190692 0.0043972484 0.087457575 -0.03910588 0.032771666 0.062222574 -0.05230895
0.028527085 0.067779556 -0.035629082 -0.09559884 0.059047025 0.0041634687 0.026257055 0.042958234
0.09127144 0.007843284 -0.009151344 -0.025552653 -0.04650664 -0.04195388 0.047139745 -0.17092113
-0.02617692 -0.057220466 0.037468556 0.022694206 0.05382361 0.07378681 -0.0119851725 -0.09706664
0.0078955125 0.026693393 -0.07347832 0.11249661 0.06985179 0.01695808 -0.112095386 -0.039417364
-0.038375158 0.036969103 0.15318282 0.007620117 -0.059331164 0.05408102 0.026868053 0.10218978
0.16237338 0.05958389 0.07410511 0.11990325 0.11500946 -0.02723012 0.08224733 -0.042217698
0.008697696 0.043796014 -0.019087164 -0.021775138 -0.00011249852 0.04842767 0.052921604 -0.00058394123
0.05085708 0.07621308 -0.14459553 0.020992761 0.15905976 -0.016750539 -0.02696245 0.016946856
-0.022905989 0.06704907 -0.047530066 0.020878881 -0.09674571 -0.055884246 0.072585 0.0600524
0.026906908 -0.04648617 -0.06268282 0.04460655 -0.02252301 0.071225785 -0.015149426 0.116648026
0.120708056 -0.010646641 -0.10134777 0.00059496274 -0.033918895 0.081354015 -0.0028770054 0.068832554
-0.036461823 -0.07155616 0.002332794 -0.048379667 0.049234156 0.07058064 -0.012308039 0.06486833
0.00029739633 0.043625392 0.061219513 0.09438441 -0.06550258 -0.029013881 0.01815353 0.013253595
-0.018602801 -0.040830094 0.15045503 -0.004566073 -0.046086885 0.005007319 0.03536935 -0.08638603
-0.04983029 -0.15103665 -0.14204012 0.10581956 0.030761259 -0.050123036 -0.019961681 -0.06719501
0.053210713 -0.021993265 -0.002924899 -0.030856373 0.015623245 0.07847576 -0.00206193 -0.002754535
0.046888612 -0.010128429 0.048497066 0.05530023 -0.00040007802 0.053465642 0.026439052 0.07911401
-0.04331773 -0.050837398 0.0094728945 -0.03386321 0.003144584 -0.056098174 -0.011339044 0.06762686
0.032050252 0.113120034 -0.013018446 0.05944971 0.027499007 0.040620834 -0.05631518 0.12641962
-0.046728868 0.058462154 -0.015951158 -0.09138961 0.03067035 0.012807045 -0.0016214164 0.002671451
0.11408175 0.1150433 0.008337492 0.045152333 0.013912014 -0.030128494 0.033734266 0.033975344
-0.032702006 -0.041915257 0.06765044 -0.019602524 0.0943682 0.020731915 0.06840133 -0.026249243
0.032778345 0.04084427 0.16424213 0.13762248 0.023194596 0.03163818 0.032057792 0.011054915
0.02191484 -0.13310507 0.05905082 0.07791814 -0.043984342 -0.011402298 0.038037054 0.04184072
-0.032137945 0.07121452 -0.0941069 -0.10644672 0.07279597 -0.107093 0.052825212 -0.14090656
0.03414703 -0.052731074 -0.014717208 0.044105954 -0.043331034 0.14747687 0.03316833 -0.12334806
-0.042069443 0.057204023 0.021918176 -0.03124861 -0.057550877 -0.041145295 -0.0773394 -0.022788074
-0.17917506 0.012386258 0.07974237 -0.05740963 -0.05022184 -0.005194726 0.056230396 0.080541946
0.0032731 -0.15295559 -0.023934409 0.057703495 -0.015079614 -0.018523885 -0.02360332 -0.011629208
0.022945687 0.0011133822 0.0697662 0.049047425 0.05823637 -0.019839965 -0.0051737684 0.02631855
0.035842963 -0.019940376 -0.033095002 -0.04336958 0.069261804 -0.042937588 0.02440937 0.06346464
00000000: 3c81 a43c 3628 66bd cb16 903b f51c b33d
00000010: 7d2d 20bd 953b 063d 19dd 7e3d e941 56bd
00000020: a2b1 e93c 02d0 8a3d cdef 11bd 53c9 c3bd
00000030: 4bdb 713d b56d 883b 0919 d73c f9f4 2f3d
00000040: 85ec ba3d 1e81 003c 85ef 15bc cc53 d1bc
00000050: bf7d 3ebd d5d7 2bbd 9b15 413d f305 2fbe
00000060: fb70 d6bc 0260 6abd a178 193d 33e9 b93c
00000070: 2576 5c3d 8a1d 973d 755d 44bc e0ca c6bd
00000080: 2e5c 013c 1aac da3c cd7b 96bd 9f64 e63d
00000090: 750e 8f3d aceb 8a3c 4492 e5bd 1a74 21bd
000000a0: 452f 1dbd ea6c 173d f5db 1c3e 2db2 f93b
000000b0: 3c05 73bd 0f84 5d3d 641a dc3c e048 d13d
000000c0: 3545 263e 3d0e 743d 6bc4 973d d68f f53d
000000d0: 148a eb3d b311 dfbc 4a71 a83d 77ec 2cbd
000000e0: c880 0e3c 7363 333d af5c 9cbc c661 b2bc
000000f0: 2fed ebb8 185c 463d 53c4 583d a213 19ba
00000100: 834f 503d 9a15 9c3d da10 14be 03f9 ab3c
00000110: 90e0 223e 6d38 89bc 5be0 dcbc 22d4 8a3c
00000120: 57a5 bbbc 0651 893d e3ae 42bd 300a ab3c
00000130: 9d22 c6bd e1e6 64bd 72a7 943d 81f9 753d
00000140: e06b dc3c 4868 3ebd da5f 80bd 5cb5 363d
00000150: 2d82 b8bc d3de 913d 4c35 78bc 29e5 ee3d
00000160: c935 f73d 406f 2ebc 6b8f cfbd 46f7 1b3a
00000170: 8aee 0abd ef9c a63d 248c 3cbb 15f8 8c3d
00000180: fe58 15bd 098c 92bd cae1 183b c229 46bd
00000190: c1a9 493d 958c 903d a8a7 49bc b0d9 843d
000001a0: dceb 9b39 8ab0 323d 50c1 7a3d 9d4c c13d
000001b0: 3726 86bd 85ae edbc b6b6 943c 9b25 593c
000001c0: e764 98bc 753d 27bd e210 1a3e ff9e 95bb
000001d0: 9ac5 3cbd 7014 a43b 74df 103d 29eb b0bd
000001e0: d91a 4cbd 5aa9 1abe f772 11be edb7 d83d
000001f0: 09ff fb3c d04d 4dbd ae86 a3bc 8a9d 89bd
00000200: 7af3 593d 382b b4bc aaaf 3fbb 81c6 fcbc
00000210: a4f8 7f3c e6b7 a03d 7221 07bb 6e85 34bb
00000220: 460e 403d b6f1 25bc dca4 463d 7e82 623d
00000230: 90c1 d1b9 cafe 5a3d b696 d83c 8706 a23d
00000240: ef6d 31bd e03a 50bd 3334 1b3c 26b4 0abd
00000250: 5d15 4e3b 33c7 65bd 66c7 39bc f47f 8a3d
00000260: 2047 033d 7aab e73d 524b 55bc 8a81 733d
00000270: 9945 e13c 0862 263d bfaa 66bd 2574 013e
00000280: c566 3fbd 0376 6f3d 01ac 82bc 7a2a bbbd
00000290: 6340 fb3c a4d4 513c b585 d4ba 8313 2f3b
000002a0: b1a3 e93d d29b eb3d fa99 083c a7f1 383d
000002b0: 37ef 633c 08d0 f6bc f12c 0a3d bb29 0b3d
000002c0: 8af2 05bd 55af 2bbd 508c 8a3d 7995 a0bc
000002d0: 1d44 c13d fad5 a93c ff15 8c3d a708 d7bc
000002e0: 9642 063d 524c 273d 172f 283e e8ec 0c3e
000002f0: 9802 be3c 0997 013d 084f 033d ad1f 353c
00000300: c086 b33c b24c 08be 46df 713d 8c93 9f3d
00000310: ed28 34bd b4d0 3abc becc 1b3d 2d61 2b3d
00000320: 14a3 03bd ebd8 913d 1ebb c0bd bd00 dabd
00000330: 0e16 953d 9353 dbbd 405f 583d cf49 10be
00000340: c2dd 0b3d 8afc 57bd 7220 71bc 72a8 343d
00000350: e27b 31bd 2d04 173e 84db 073d e89d fcbd
00000360: 0251 2cbd c44e 6a3d bf8d b33c 16fd ffbc
00000370: 78ba 6bbd f887 28bd 1f64 9ebd 0eae babc
00000380: ab79 37be bbef 4a3c f84f a33d 5c26 6bbd
00000390: 6bb5 4dbd 8538 aabb d851 663d 2df3 a43d
000003a0: 8181 563b 64a0 1cbe 1812 c4bc 805a 6c3d
000003b0: 7c10 77bc 67bf 97bc c05b c1bc 6f88 3ebc
000003c0: 98f8 bb3c e8ee 913a 95e1 8e3d f4e5 483d
000003d0: 4389 6e3d 6c87 a2bc b788 a9bb 009a d73c
000003e0: 12d0 123d 005a a3bc a08e 07bd 4da4 31bd
000003f0: 22d9 8d3d 53df 2fbd 29f6 c73c c0f9 813d

layer2.0.bias f4 [64]
4.344534e-05 0.000100872196 8.5809586e-07 3.4331115e-05 -1.6955211e-05 -7.168801e-05 -7.880454e-05 4.2058553e-05
-1.9387287e-05 -6.169665e-05 9.526244e-05 5.4308944e-06 3.5092155e-05 -0.00013371158 -3.3408312e-05 0.00011189411
-0.00027346078 1.1685865e-05 -0.0001015463 -7.4637544e-05 -0.00014319034 5.229388e-07 -0.00011469915 9.436557e-05
2.0028701e-05 -1.2463385e-05 8.600963e-06 -3.737217e-05 -9.747421e-05 -6.1655446e-05 -2.7152559e-05 -8.871678e-05
-5.4274682e-05 3.3756987e-05 4.5547025e-05 -8.957033e-05 5.2354866e-05 -4.742332e-05 -3.1575382e-05 9.1598115e-05
-7.184778e-05 7.5763994e-05 -1.8910756e-05 -9.533134e-05 7.9385696e-05 -4.1728854e-05 -0.00015733944 8.2390434e-05
1.0500334e-05 5.5805194e-05 0.000107998494 2.7712895e-05 8.4651736e-05 -3.3975008e-05 -2.2898106e-05 -3.2435768e-05
-7.6256606e-06 -4.804794e-05 5.1761028e-05 9.241495e-05 2.6212654e-05 0.000107762135 -7.3925235e-05 -9.493864e-05
00000000: 1439 3638 598b d338 e657 6635 c1fe 0f38
00000010: 0a3b 8eb7 3557 96b8 de43 a5b8 0768 3038
00000020: e2a1 a2b7 2363 81b8 a2c7 c738 073b b636
00000030: ea2f 1338 ee34 0cb9 e71f 0cb8 b1a8 ea38
00000040: 495f 8fb9 680e 4437 41f5 d4b8 ba86 9cb8
00000050: 5d25 16b9 1560 0c35 a38a f0b8 21e6 c538
00000060: 4f03 a837 d519 51b7 db4c 1037 10c0 1cb8
00000070: 116b ccb8 044d 81b8 adc5 e3b7 750d bab8
00000080: ffa4 63b8 4a96 0d38 bf09 3f38 b4d7 bbb8
00000090: 9c97 5b38 67e8 46b8 cf6f 04b8 5d18 c038
000000a0: fcac 96b8 7ce3 9e38 8aa2 9eb7 a0ec c7b8
000000b0: df7b a638 0406 2fb8 7cfb 24b9 07c9 ac38
000000c0: 972a 3037 5f10 6a38 407d e238 fd78 e837
000000d0: 0e87 b138 6380 0eb8 4f15 c0b7 a40b 08b8
000000e0: eddf ffb6 1587 49b8 fb19 5938 e6ce c138
000000f0: 3fe3 db37 5bfe e138 4f08 9bb8 cb19 c7b8

layer2.1.weight f4 [64]
1.1813282 1.2114185 1.2596067 1.1937466 1.2387835 1.2105641 1.2413392 1.1979746
1.2034771 1.1913131 1.2029569 1.1964582 1.22175 1.2336375 1.1989392 1.208584
1.2165854 1.2124324 1.2130255 1.2078925 1.1941799 1.1825901 1.1996164 1.213224
1.2145755 1.2376957 1.1789501 1.2041743 1.2242724 1.2107369 1.1737505 1.1794646
1.2022345 1.2380244 1.1674571 1.191605 1.2156782 1.2013074 1.2267588 1.1919645
1.2117572 1.2011961 1.2083837 1.2196503 1.1855775 1.1842712 1.2336797 1.1970164
1.2000985 1.1980336 1.2162012 1.2151884 1.2473614 1.2025279 1.1919594 1.2139449
1.2129741 1.1995562 1.188655 1.2248698 1.2075926 1.2179711 1.2247058 1.1813587
00000000: c335 973f c30f 9b3f cb3a a13f b0cc 983f
00000010: 7590 9e3f c4f3 9a3f 34e4 9e3f 3b57 993f
00000020: 8a0b 9a3f f37c 983f 7efa 993f 8b25 993f
00000030: 4e62 9c3f d5e7 9d3f d776 993f e1b2 9a3f
00000040: 12b9 9b3f fc30 9b3f 6b44 9b3f 399c 9a3f
00000050: e3da 983f 1d5f 973f 088d 993f ed4a 9b3f
00000060: 3677 9b3f d06c 9e3f d6e7 963f 6222 9a3f
00000070: f5b4 9c3f 6df9 9a3f 753d 963f b2f8 963f
00000080: d2e2 993f 9577 9e3f 3c6f 953f 8386 983f
00000090: 589b 9b3f 71c4 993f 6f06 9d3f 4b92 983f
000000a0: dc1a 9b3f cbc0 993f 51ac 9a3f 801d 9c3f
000000b0: 01c1 973f 3396 973f 37e9 9d3f d537 993f
000000c0: d49c 993f 2a59 993f 7bac 9b3f 4b8b 9b3f
000000d0: 8aa9 9f3f 6fec 993f 2092 983f 8c62 9b3f
000000e0: bc42 9b3f 0f8b 993f d925 983f 89c8 9c3f
000000f0: 6592 9a3f 7ae6 9b3f 29c3 9c3f c336 973f

layer2.1.bias f4 [64]
0.10897036 0.12284606 0.15552808 0.09424909 0.104822695 0.10773793 0.10705689 0.11905272
0.10582007 0.1248082 0.11972903 0.1082136 0.10553122 0.111373335 0.11452713 0.10478958
0.11869649 0.14462139 0.11757242 0.11495809 0.09586225 0.124997295 0.110280536 0.11908604
0.10617136 0.1214773 0.09938583 0.111957684 0.114485726 0.12313895 0.094356924 0.070417814
0.110718496 0.13969003 0.04833456 0.10337149 0.115322046 0.12032863 0.11043017 0.09191154
0.118148655 0.1110543 0.1138426 0.11974204 0.10886233 0.09633612 0.12291494 0.116833225
0.13159476 0.12326913 0.11714647 0.116624 0.13833115 0.10046044 0.1304675 0.12166741
0.108505554 0.12636499 0.100336425 0.11879194 0.120647386 0.117656216 0.121473216 0.10223048
00000000: da2b df3d b796 fb3d c142 1f3e ab05 c13d
00000010: 48ad d63d b4a5 dc3d a540 db3d ead1 f33d
00000020: 31b8 d83d 719b ff3d 7e34 f53d 189f dd3d
00000030: c120 d83d b417 e43d 338d ea3d eb9b d63d
00000040: 2517 f33d a117 143e cfc9 f03d 266f eb3d
00000050: 6d53 c43d 95fe ff3d c3da e13d 62e3 f33d
00000060: 5f70 d93d 17c9 f83d cc8a cb3d 124a e53d
00000070: 7e77 ea3d 4630 fc3d 343e c13d 3737 903d
00000080: 61c0 e23d e70a 0f3e 76fa 453d 6fb4 d33d
00000090: f72d ec3d db6e f63d 3729 e23d 1e3c bc3d
000000a0: ecf7 f13d 7070 e33d 4f26 e93d 513b f53d
000000b0: 37f3 de3d df4b c53d d4ba fb3d 4246 ef3d
000000c0: c7c0 063e 8774 fc3d 7dea ef3d 90d8 ee3d
000000d0: aea6 0d3e 34be cd3d 4699 053e c32c f93d
000000e0: 2938 de3d d365 013e 2f7d cd3d 3049 f33d
000000f0: fa15 f73d bef5 f03d f3c6 f83d 375e d13d

layer2.1.running_mean f4 [64]
1.5952036 1.6061152 1.4389359 1.6491761 1.9427382 1.6054516 1.7609187 1.6663846
1.6756723 1.7762034 1.7542324 1.3858187 1.234467 1.2164646 1.5380503 1.4534302
1.4736953 1.4722843 1.4345431 1.3730778 1.2610935 1.5292763 1.6157392 1.1920164
1.1571277 1.5275952 1.4570746 1.453569 1.364967 1.4797893 1.6609963 1.6397898
1.5732753 1.6725085 2.0070653 1.6791434 1.3425907 1.4099466 1.4949116 1.4476115
1.4996544 1.4561129 1.6143997 1.6351159 1.4594231 1.9356608 1.5580108 1.7163476
1.38311 1.5669352 1.6076647 1.5863394 1.2578636 1.6393301 1.6938943 1.254787
1.2755638 1.3214302 1.3174281 1.5558357 1.5420341 1.7713205 1.496332 1.4867617
00000000: a22f cc3f 2f95 cd3f 0d2f b83f 3418 d33f
00000010: a5ab f83f 707f cd3f c965 e13f 174c d53f
00000020: 6e7c d63f a25a e33f b08a e03f 8262 b13f
00000030: 0403 9e3f 1db5 9b3f d5de c43f 000a ba3f
00000040: 0ca2 bc3f d073 bc3f 1c9f b73f 03c1 af3f
00000050: 836b a13f 53bf c33f 8bd0 ce3f fe93 983f
00000060: c31c 943f 3d88 c33f 6c81 ba3f 8d0e ba3f
00000070: 3db7 ae3f bc69 bd3f 879b d43f a2e4 d13f
00000080: 1661 c93f c214 d63f c273 0040 2cee d63f
00000090: 03da ab3f 2179 b43f 4359 bf3f 554b b93f
000000a0: adf4 bf3f e861 ba3f a6a4 ce3f 7a4b d13f
000000b0: 60ce ba3f bcc3 f73f e66c c73f 47b1 db3f
000000c0: c009 b13f 5591 c83f f5c7 cd3f 2b0d cb3f
000000d0: ad01 a13f 92d5 d13f 87d1 d83f dc9c a03f
000000e0: ad45 a33f a024 a93f 7ca1 a83f a025 c73f
000000f0: 6061 c53f a1ba e23f cf87 bf3f 354e be3f

layer2.1.running_var f4 [64]
1.7552902 1.7850953 1.7053388 2.3248425 1.547768 1.8964494 1.6381193 2.3382914
2.0479486 1.2780925 1.6065077 1.6305478 1.3857636 1.171451 1.9652623 0.8478825
1.762729 1.0369292 1.4993719 1.3375185 1.7852477 2.1109807 1.6510038 2.074654
1.2996392 1.1306636 1.6078322 1.3975146 2.0875819 1.1451917 1.9668416 1.9103143
1.5083424 1.7263849 1.9406948 1.8508496 2.1651156 1.1376665 1.8250717 1.3595207
2.101452 1.7802999 1.5894939 1.057424 1.8816855 2.316188 1.3109984 1.7215358
1.2792301 1.916322 1.6181943 2.177336 1.3792789 1.7394418 1.4886467 1.7621738
1.251919 1.398242 1.2897278 1.683838 1.5072608 1.1072949 1.7611493 1.6571449
00000000: 59ad e03f 017e e43f 8b48 da3f 38ca 1440
00000010: 431d c63f dbbe f23f e5ad d13f 91a6 1540
00000020: 9711 0340 8998 a33f 0ba2 cd3f cab5 d03f
00000030: b460 b13f 1bf2 953f b78d fb3f d40e 593f
00000040: 1ba1 e13f 19ba 843f 6beb bf3f ce33 ab3f
00000050: ff82 e43f 4f1a 0740 1854 d33f 22c7 0440
00000060: 945a a63f 96b9 903f 72cd cd3f c2e1 b23f
00000070: f19a 0540 a495 923f 77c1 fb3f 2e85 f43f
00000080: 5d11 c13f 2efa dc3f b068 f83f a4e8 ec3f
00000090: 4191 0a40 0e9f 913f f39b e93f c604 ae3f
000000a0: 317e 0640 dee0 e33f 8974 cb3f ab59 873f
000000b0: 12db f03f 6d3c 1440 ccce a73f 495b dc3f
000000c0: d0bd a33f 0a4a f53f fe20 cf3f 7959 0b40
000000d0: 368c b03f 07a6 de3f fa8b be3f e98e e13f
000000e0: e23e a03f 98f9 b23f cd15 a53f 0188 d73f
000000f0: eced c03f d7bb 8d3f 576d e13f 531d d43f

fc1.weight f4 [8, 64]
0.10196393 0.1336567 0.11601813 0.10681005 0.12174892 0.12558647 0.108188964 0.119034745
0.11617861 0.09742084 0.107681565 0.09997226 0.12648967 0.10577339 0.110245235 0.119415045
0.11375317 0.11815012 0.11850313 0.117753185 0.11329441 0.0840679 0.11478666 0.11023947
0.111814804 0.111751124 0.08447489 0.12755507 0.10846645 0.10436994 0.103104845 0.10305093
0.11158819 0.113200024 0.10867119 0.11093717 0.10378168 0.124129854 0.11376005 0.10243167
0.10076828 0.1411148 0.114672124 0.1181678 0.10787055 0.11536441 0.12924874 0.11335479
0.11812187 0.1117556 0.11999188 0.11809928 0.13602841 0.12580563 0.11442196 0.13204582
0.120460816 0.1090865 0.112070695 0.11972731 0.119962215 0.12271938 0.10942619 0.12214695
0.14164829 0.16688243 0.16082793 0.14615583 0.13317831 0.16603096 0.15542603 0.13386445
0.1316046 0.13814157 0.13952778 0.11592056 0.13730922 0.12822767 0.13263287 0.16651821
0.16672939 0.14965564 0.13036533 0.14622779 0.14376837 0.12815762 0.15469392 0.1274876
0.14772359 0.14775646 0.14026935 0.1540492 0.1496864 0.13500482 0.12783067 0.13225693
0.14335684 0.1432892 0.12907661 0.13158308 0.16515705 0.13918573 0.13544767 0.13789327
0.1416628 0.15215683 0.14440803 0.14567648 0.13305001 0.14197218 0.15826164 0.13456897
0.14608075 0.14271256 0.12532847 0.15757926 0.1553669 0.13972557 0.14098427 0.14283855
0.14540313 0.1254516 0.13898584 0.14716935 0.13968043 0.13676299 0.1460895 0.14888886
-0.040650558 -0.052379824 -0.120813474 -0.043207165 -0.07999167 -0.05044861 -0.06597188 -0.042542506
-0.048322503 -0.031867128 -0.04393862 -0.030549752 -0.05028392 -0.09407626 -0.048963234 -0.055014886
-0.068099625 -0.07389457 -0.061325416 -0.054008193 -0.042881276 -0.043561753 -0.05407955 -0.033805437
-0.079724394 -0.09214905 -0.035076972 -0.049753696 -0.06784125 -0.061160073 -0.027784916 -0.030702041
-0.06544811 -0.09088881 -0.04429756 -0.03223007 -0.065491624 -0.059518274 -0.05353726 -0.06792232
-0.0728233 -0.05571872 -0.054974083 -0.0705544 -0.039546836 -0.031939622 -0.090192005 -0.041038644
-0.041849416 -0.031674426 -0.07587785 -0.052955605 -0.08670764 -0.04838082 -0.060871456 -0.052211836
-0.08719422 -0.0667878 -0.047144454 -0.0773965 -0.093868494 -0.0991173 -0.08254764 -0.03722607
0.13193756 0.14555399 0.173084 0.10842813 0.12307027 0.11898589 0.1420042 0.13333006
0.12797464 0.1258779 0.12338134 0.13436003 0.13922529 0.12965995 0.13118324 0.13920797
0.12610082 0.13471168 0.13108675 0.111407794 0.14253466 0.13117673 0.14136831 0.12631296
0.1304296 0.13482119 0.121962115 0.13286966 0.13321362 0.12155808 0.11661273 0.14933237
0.14093763 0.1357693 0.118151605 0.11878137 0.1270485 0.1283484 0.12747738 0.13489304
0.1140139 0.14309339 0.14350635 0.12263407 0.14500086 0.1321661 0.13200729 0.11236139
0.12687893 0.10802991 0.1198704 0.13908805 0.1348073 0.13721354 0.122150935 0.13743661
0.1467677 0.11982085 0.11659545 0.13359275 0.13217732 0.12767568 0.1540186 0.12878636
00000000: 77d2 d03d 4ddd 083e ea9a ed3d 3abf da3d
00000010: 7f57 f93d bd99 003e 2d92 dd3d 7dc8 f33d
00000020: 0def ed3d 9484 c73d 2788 dc3d 42be cc3d
00000030: 8286 013e b89f d83d 41c8 e13d e08f f43d
00000040: 6cf7 e83d b1f8 f13d c5b1 f23d 9528 f13d
00000050: e606 e83d cb2b ac3d 4515 eb3d 3bc5 e13d
00000060: 29ff e43d c6dd e43d 2c01 ad3d cc9d 023e
00000070: a823 de3d e8bf d53d a228 d33d 5e0c d33d
00000080: 5988 e43d 6ad5 e73d 008f de3d 0733 e33d
00000090: 7d8b d43d cb37 fe3d 07fb e83d b2c7 d13d
000000a0: 9a5f ce3d 6680 103e 38d9 ea3d f601 f23d
000000b0: 3ceb dc3d 2d44 ec3d c859 043e 8e26 e83d
000000c0: e1e9 f13d 1fe0 e43d 4ebe f53d 09de f13d
000000d0: 084b 0b3e 31d3 003e 1056 ea3d 0537 073e
000000e0: 29b4 f63d be68 df3d 5285 e53d 9833 f53d
000000f0: c0ae f53d 4c54 fb3d d71a e03d 2e28 fa3d
00000100: 400c 113e 3ae3 2a3e 14b0 243e e0a9 153e
00000110: e55f 083e 0504 2a3e 0028 1f3e c313 093e
00000120: 5bc3 063e fc74 0d3e 5fe0 0e3e c267 ed3d
00000130: ca9a 0c3e 1d4e 033e e9d0 073e c083 2a3e
00000140: 1cbb 2a3e 543f 193e 7d7e 053e bdbc 153e
00000150: 0438 133e c03b 033e 1568 1e3e 1c8c 023e
00000160: da44 173e 784d 173e c5a2 0f3e 13bf 1d3e
00000170: 6447 193e b43e 0a3e 0be6 023e 5c6e 073e
00000180: 23cc 123e 67ba 123e a92c 043e b7bd 063e
00000190: ee1e 293e b486 0e3e cbb2 0a3e e533 0d3e
000001a0: 0e10 113e 00cf 1b3e b3df 133e 372c 153e
000001b0: 433e 083e 2861 113e 570f 223e 73cc 093e
000001c0: 3196 153e 3e23 123e 1b56 003e 755c 213e
000001d0: 8018 1f3e 3814 0f3e 2e5e 103e 4544 123e
000001e0: 8fe4 143e 6276 003e 4e52 0e3e 90b3 163e
000001f0: 6308 0f3e 990b 0c3e 7c98 153e 5276 183e
00000200: 3381 26bd 3a8c 56bd 0e6d f7bd fff9 30bd
00000210: acd2 a3bd 34a3 4ebd 441c 87bd 0d41 2ebd
00000220: d1ed 45bd 1b87 02bd fbf8 33bd 7943 fabc
00000230: 83f6 4dbd 0eab c0bd ac8d 48bd 4a57 61bd
00000240: d177 8bbd 0956 97bd 5c30 7bbd b237 5dbd
00000250: 47a4 2fbd cf6d 32bd 8582 5dbd 9277 0abd
00000260: 8b46 a3bd a4b8 bcbd dfac 0fbd 88ca 4bbd
00000270: 5af0 8abd fc82 7abd 319d e3bc d982 fbbc
00000280: a909 86bd ea23 babd 5c71 35bd ae03 04bd
00000290: 7920 86bd 6fc9 73bd e349 5bbd db1a 8bbd
000002a0: 6224 95bd 5039 64bd 812c 61bd d37e 90bd
000002b0: ddfb 21bd 1fd3 02bd 96b6 b8bd 2318 28bd
000002c0: 4b6a 2bbd 0bbd 01bd d965 9bbd fae7 58bd
000002d0: c693 b1bd f72a 46bd 5954 79bd 14dc 55bd
000002e0: e292 b2bd 0bc8 88bd 8b1a 41bd 0e82 9ebd
000002f0: 203e c0bd 03fe cabd bd0e a9bd 5d7a 18bd
00000300: a41a 073e 1b0c 153e ef3c 313e 910f de3d
00000310: 440c fc3d e0ae f33d 8d69 113e ad87 083e
00000320: c90b 033e 23e6 003e 5baf fc3d ad95 093e
00000330: 1391 0e3e 94c5 043e e654 063e 898c 0e3e
00000340: 9320 013e dcf1 093e 9b3b 063e c529 e43d
00000350: 9bf4 113e 3153 063e dbc2 103e 2f58 013e
00000360: 568f 053e 910e 0a3e 46c7 f93d fc0e 083e
00000370: 2769 083e 71f3 f83d a8d2 ee3d 96ea 183e
00000380: f451 103e 1b07 0b3e 78f9 f13d a643 f33d
00000390: 0119 023e c36d 033e 6e89 023e 6721 0a3e
000003a0: 1f80 e93d 1387 123e 54f3 123e 9227 fb3d
000003b0: 1b7b 143e 8d56 073e eb2c 073e ba1d e63d
000003c0: 8dec 013e c93e dd3d 9d7e f53d 196d 0e3e
000003d0: ed0a 0a3e b581 0c3e 452a fa3d 2fbc 0c3e
000003e0: 464a 163e a264 f53d 98c9 ee3d 8acc 083e
000003f0: 7e59 073e 6abd 023e 0db7 1d3e 92e0 033e

fc1.bias f4 [8]
0.71184355 0.6454955 1.6988624 0.6693048 0.6743612 0.5956937 1.7170521 0.69717693
00000000: 613b 363f 313f 253f 5374 d93f 8f57 2b3f
00000010: f0a2 2c3f 627f 183f 5dc8 db3f 307a 323f

fc2.weight f4 [1, 8]
-0.07832505 -0.07881536 0.41397968 -0.078105725 -0.07726224 -0.08293814 0.40369582 -0.07668685
00000000: e268 a0bd f369 a1bd 25f5 d33e e5f5 9fbd
00000010: aa3b 9ebd 79db a9bd 38b1 ce3e ff0d 9dbd
